test/task_1a_trained_model.pth (torch, 176136 bytes, 13 tensors)

weight f4 [64, 9]
-0.24909559 0.33286294 -0.13146949 0.24731071 0.41511747 -0.3361061 0.06590005 0.36454856
0.38810858 -0.35203698 0.36501816 -0.06637701 -0.46101066 0.19832522 0.058935165 0.34830073
0.07082774 0.09862068 -0.2909514 -0.41305113 0.41437593 -0.08126059 0.09207898 0.110370636
-0.07124372 0.21354653 0.16174255 -0.008420449 0.34616092 0.062320378 -0.21069543 -0.14287905
-0.11971012 -0.31639796 -0.2485382 0.029569019 0.21752447 -0.20541778 -0.29524204 0.17864017
-0.116975695 -0.2516743 0.35382855 0.1385458 -0.15432023 0.11429761 0.14995183 -0.25218347
0.26687163 0.2500514 -0.44685373 -0.028640712 0.1760289 -0.22101414 -0.0009323457 -0.3120748
0.27056596 0.16428103 -0.37380174 -0.14949246 0.09008068 0.34624666 -0.1956173 0.3691851
-0.13228 0.36571574 0.41873932 0.20185103 0.032065943 -0.04197359 -0.30543846 -0.029355418
-0.17268132 0.26311296 -0.22167931 0.020699766 -0.043179613 0.34596682 0.000991804 0.017368998
-0.15346785 -0.31872576 0.11190754 -0.2559832 0.20164455 -0.051876623 0.1455028 0.02763844
-0.023658331 -0.21902765 -0.12452343 -0.33435538 0.03076831 0.38010538 0.2716297 -0.1158043
-0.3118464 -0.03953402 -0.23589742 0.07819124 -0.19104584 0.15936768 0.3797485 0.130573
0.35267758 -0.21893196 -0.3213618 0.095181525 -0.017599659 0.5922409 0.27189696 -0.122835435
0.26367232 -0.12501104 0.006518957 -0.021076424 0.043672387 0.42981237 0.006007496 -0.3521571
-0.07920465 -0.21097812 -0.14542891 0.028452864 0.109061144 -0.36591947 0.104024395 -0.061300207
-0.15541302 -0.36094403 0.027346073 -0.36905393 -0.28452122 0.1531479 -0.21306473 -0.15617791
0.22755516 0.1263593 -0.3754087 0.13045 -0.32296792 0.1793834 -0.33477327 -0.16214667
0.22518502 0.4922324 -0.29590878 -0.013657271 -0.19015321 -0.25448176 0.09830672 -0.34162205
0.19328487 0.00881501 -0.007115843 -0.31089774 -0.15091889 -0.23645318 -0.024959695 0.3863413
-0.42909285 -0.15029232 0.09991031 0.08214923 -0.16290654 0.38685313 0.21280316 -0.0026840183
0.270225 0.36282066 -0.11639573 0.1994404 -0.5542703 -0.26489922 -0.044378433 0.03046512
0.005300872 -0.036673255 -0.09698708 0.15241836 -0.18445021 -0.064903386 0.19600101 -0.2546135
0.21132277 -0.34171987 -0.18871318 -0.090238005 0.16933638 -0.3042 0.12151081 -0.40801737
0.15374514 0.020402508 -0.1978788 -0.076282345 0.2656317 0.046195675 0.17873459 -0.4052558
-0.1445129 0.15906109 0.38602027 0.16826083 0.24963464 -0.20859413 0.06974164 -0.33817858
-0.16941679 0.34938416 -0.05296758 0.314547 0.19703066 0.10443204 0.29307216 -0.1886797
-0.25426728 -0.1477975 0.34712443 0.05758369 0.09368149 -0.38022262 -0.019402517 -0.1479236
-0.29730225 0.19671224 0.29952458 0.3106779 -0.37588304 -0.054974556 0.19497868 -0.07595862
0.362686 0.25591308 -0.00082597305 0.066237524 0.14900151 -0.20403348 0.36157686 -0.15515067
-0.2999595 0.2501994 -0.37693673 -0.19393073 -0.3777866 -0.18711522 0.079830974 0.49877927
-0.20262383 -0.22327535 0.3625694 -0.1590911 -0.3492357 -0.010108467 0.3375342 -0.22830558
00000000: ea12 7fbe 036d aa3e f09f 06be 053f 7d3e
00000010: 478a d43e 1916 acbe 9bf6 863d 1ca6 ba3e
00000020: 2bb6 c63e 313e b4be a9e3 ba3e abf0 87bd
00000030: 9709 ecbe c415 4b3e 0066 713d 7954 b23e
00000040: 220e 913d a4f9 c93d 95f7 94be 707b d3be
00000050: 1529 d43e f46b a6bd e793 bc3d 000a e23d
00000060: 3ae8 91bd f1ab 5a3e d79f 253e ecf5 09bc
00000070: 013c b13e a743 7f3d 8bc0 57be e34e 12be
00000080: 942a f5bd eafe a1be cc80 7ebe ba3a f23c
00000090: bcbe 5e3e 0a59 52be f729 97be 73ed 363e
000000a0: f490 efbd 74db 80be 0429 b53e f3de 0d3e
000000b0: 1f06 1ebe de14 ea3d f98c 193e 311e 81be
000000c0: 66a3 883e bd06 803e 03ca e4be ed9f eabc
000000d0: ec40 343e 8851 62be a968 74ba 45c8 9fbe
000000e0: 9f87 8a3e 4939 283e f162 bfbe 8d14 19be
000000f0: 387c b83d 3e47 b13e e74f 48be d405 bd3e
00000100: 6974 07be 183f bb3e 0065 d63e 09b2 4e3e
00000110: 9457 033d 80ec 2bbd 6e62 9cbe c67a f0bc
00000120: 5fd3 30be beb6 863e e7ff 62be 8e92 a93c
00000130: 1bdd 30bd 9022 b13e 6bff 813a 6e49 8e3c
00000140: ad26 1dbe 0630 a3be c82f e53d 3b10 83be
00000150: e97b 4e3e 957c 54bd b0fe 143e 026a e23c
00000160: 1ecf c1bc c948 60be 2406 ffbd a130 abbe
00000170: d30d fc3c 2c9d c23e 0c13 8b3e ce2a edbd
00000180: 55aa 9fbe 6dee 21bd 188f 71be bb22 a03d
00000190: 85a1 43be 4831 233e 656e c23e eeb4 053e
000001a0: 2892 b43e b32f 60be 8989 a4be 88ee c23d
000001b0: 292d 90bc 1a9d 173f 1436 8b3e 2591 fbbd
000001c0: 0f00 873e e502 00be fa9c d53b 77a8 acbc
000001d0: d1e1 323d 5e10 dc3e 87da c43b ef4d b4be
000001e0: 0c36 a2bd a60a 58be 51eb 14be fb15 e93c
000001f0: 735b df3d cc59 bbbe be0a d53d ed15 7bbd
00000200: 9724 1fbe a8cd b8be df04 e03c a3f4 bcbe
00000210: c4ac 91be ced2 1c3e a42d 5abe 1aed 1fbe
00000220: 3804 693e 5564 013e 9235 c0be af94 053e
00000230: 0d5c a5be 48b0 373e 6767 abbe c709 26be
00000240: e796 663e e305 fc3e 5b81 97be bfc2 5fbc
00000250: 86b7 42be 6f4b 82be 0955 c93d 16e9 aebe
00000260: 78ec 453e d56c 103c 042c e9bb fd2d 9fbe
00000270: 7b8a 1abe c820 72be 4678 ccbc 87ce c53e
00000280: 0fb2 dbbe 3be6 19be c79d cc3d db3d a83d
00000290: f9d0 26be 9d11 c63e 12e9 593e 5be6 2fbb
000002a0: ee5a 8a3e a1c3 b93e e260 eebd 1b3a 4c3e
000002b0: a9e4 0dbf dfa0 87be 29c6 35bd fd91 f93c
000002c0: f0b2 ad3b b236 16bd 2aa1 c6bd 8f13 1c3e
000002d0: 84e0 3cbe 11ec 84bd 7db4 483e b35c 82be
000002e0: ff64 583e e8f5 aebe 073e 41be b4ce b8bd
000002f0: 8466 2d3e 1ac0 9bbe a9da f83d a7e7 d0be
00000300: 5e6f 1d3e 2923 a73c bda0 4abe eb39 9cbd
00000310: e100 883e ad37 3d3d 3306 373e b07d cfbe
00000320: 31fb 13be e9e0 223e 73a4 c53e 914c 2c3e
00000330: 39a0 7f3e b399 55be b4d4 8e3d be25 adbe
00000340: 987b 2dbe 7be2 b23e 88f4 58bd 4e0c a13e
00000350: 68c2 493e 77e0 d53d 8e0d 963e 4035 41be
00000360: 522f 82be 3a58 17be 4bba b13e e0dc 6b3d
00000370: 15dc bf3d 8aac c2be 07f2 9ebc 4979 17be
00000380: 0038 98be ef6e 493e 495b 993e 2c11 9f3e
00000390: be73 c0be 002d 61bd 7ea8 473e 3190 9bbd
000003a0: fbb1 b93e 0a07 833e 1d86 58ba 8aa7 873d
000003b0: da93 183e 27ee 50be 9a20 b93e d1df 1ebe
000003c0: 4b94 99be 231a 803e dafd c0be c795 46be
000003d0: 3f6d c1be 229b 3fbe 6c7e a33d ff5f ff3e
000003e0: 9f7c 4fbe 4ba2 64be b2a2 b93e c7e8 22be
000003f0: 06cf b2be fc9d 25bc 48d1 ac3e f0c8 69be

bias f4 [64]
-0.19341494 0.025174173 0.18707682 0.23726138 -0.18828501 0.24435127 0.14709827 -0.05262522
-0.1544789 0.2705936 -0.19665624 -0.10619008 -0.11620543 -0.25505304 -0.08913382 0.052818917
0.03754263 -0.18555965 -0.011460821 0.4197911 -0.15902926 0.17151223 -0.021939222 0.2522905
-0.20717727 -0.21183999 -0.09560184 0.30485362 0.29780677 -0.29960245 -0.011605432 -0.1589194
-0.2354049 0.0045254943 0.31561822 -0.07928066 0.26356578 -0.041780047 0.1409559 -0.2385183
0.15911914 0.06173271 0.17199686 -0.18827794 0.13846995 0.3508186 0.28299126 0.11784334
0.123961665 -0.18376246 0.24372293 -0.23478837 0.3311908 -0.005981036 -0.02881623 0.12088084
0.2148765 -0.4335922 0.11968896 0.0813245 -0.032508355 -0.3372807 0.18622088 0.14342414
00000000: 910e 46be 113a ce3c 1191 3f3e a6f4 723e
00000010: c9cd 40be 3837 7a3e eea0 163e 8b8d 57bd
00000020: b72f 1ebe 3f8b 8a3e 4160 49be 2f7a d9bd
00000030: 1dfd edbd 5096 82be cb8b b6bd a658 583d
00000040: 4dc6 193d 5903 3ebe 2bc6 3bbc dcee d63e
00000050: 91d8 22be e7a0 2f3e e2b9 b3bc 382c 813e
00000060: 4726 54be 95ec 58be e6ca c3bd c615 9c3e
00000070: 217a 983e 7e65 99be b624 3ebc c4bb 22be
00000080: fb0d 71be 994a 943b b698 a13e e65d a2bd
00000090: 18f2 863e 8e21 2bbd be56 103e 243e 74be
000000a0: 21f0 223e 70db 7c3d f21f 303e efcb 40be
000000b0: 11cb 0d3e 7f9e b33e 3be4 903e d957 f13d
000000c0: 9ddf fd3d 3a2c 3cbe 8192 793e 5d6c 70be
000000d0: d791 a93e 91fc c3bb 0410 ecbc 6090 f73d
000000e0: 9608 5c3e ccff ddbe 7c1f f53d 768d a63d
000000f0: 7b27 05bd 0eb0 acbe b0b0 3e3e c7dd 123e

weight f4 [128, 64]
0.023690414 -0.08313504 0.008534483 -0.010513893 -0.024155376 -0.027084999 0.09160413 0.22159414
0.0038709466 -0.05545446 -0.0033814993 0.11539392 -0.06404135 -0.039174747 0.196958 0.17008254
0.16258325 -0.049007915 0.212616 -0.1680859 0.06575204 0.08534442 -0.11166452 0.10955369
-0.03806984 0.101398446 0.04880712 -0.019827222 0.007343807 0.027100528 -0.040333312 0.004652419
0.0029908225 -0.10586665 0.1192964 -0.0066185654 0.17538075 0.089571096 0.027391734 -0.13301972
-0.04830482 -0.029320542 0.12107551 -0.06535948 -0.030814713 -0.07062966 0.059005905 -0.040037297
-0.08201349 -0.16545062 -0.13373567 0.024405988 -0.043928485 -0.11067054 0.103131324 0.16643615
0.17203942 -0.04651324 0.21459164 -0.052144423 0.0660036 0.16446303 -0.028121812 0.042696927
-0.11180701 0.08058964 -0.03806942 -0.010914798 -0.011464151 -0.11646097 0.109315045 -0.11380223
0.03110779 0.14266194 0.060946267 -0.19936681 -0.021355692 0.034340966 0.12595212 -0.01734752
-0.08616959 -0.076065235 -0.15788883 -0.06241669 0.0147680305 -0.021010116 -0.0130636515 0.042970475
0.013783051 -0.18404336 -0.12818372 0.10840778 0.010485272 0.107502095 -0.11364588 0.12894428
0.34743255 -0.026985021 0.05144184 0.17364393 0.017228073 -0.014403587 0.053138144 0.122462265
0.06967555 0.051038668 -0.14277892 0.061767966 -0.060136687 -0.09060809 0.022729779 -0.05657903
-0.09838539 -0.053649306 -0.10718678 0.15752594 -0.0920272 -0.056070365 0.2412595 0.14355007
-0.27240813 -0.08381487 0.037927568 0.04850693 -0.016903982 -0.013181389 0.107461706 0.051963497
0.19694497 -0.092089936 0.039201666 -0.029545853 -0.030004399 -0.05405628 0.04745149 0.0070591117
0.07132522 0.11647328 -0.15478164 0.07051346 -0.006629847 0.031529065 -0.076746784 -0.07139834
-0.027009428 -0.09537439 0.091964975 0.0060285237 0.050180785 0.097952895 -0.027054021 2.8245304e-06
0.036970414 -0.029407062 -0.053611368 -0.09426322 -0.08556367 -0.11823585 -0.03849954 -0.20662673
-0.0044004247 0.15148786 -0.005566399 0.0011192155 -0.110161096 -0.07468294 -0.10922581 0.11467119
0.038347065 -0.18702494 0.118747585 0.04900342 -0.12552632 0.06198998 -0.060004346 0.115165316
0.07355708 -0.035658557 0.07595208 0.06575687 -0.023712635 0.10630934 0.02783366 0.06601886
0.011668547 -0.09295247 0.08190792 -0.099458545 0.011379914 -0.037367374 0.012735034 0.11230104
0.16499424 -0.06267837 0.0006188797 0.044090822 -0.037030376 -0.06226045 -0.12832573 -0.23366793
0.11285697 0.009240219 -0.17752834 0.068587966 0.21590209 -0.12568136 -0.08139745 0.1612288
-0.117650464 -0.23432602 -0.021445697 -0.27621529 0.14336492 -0.004318274 -0.6625329 0.1734065
0.13311993 0.17924586 -0.17253923 -0.23394029 0.15991671 0.0091483435 0.15186566 -0.15721639
-0.11163109 0.1462739 0.05031909 -0.033498377 0.066362105 0.06385857 0.116552584 0.017887793
-0.19255613 -0.11514212 0.020815184 -0.306554 -0.38501248 -0.019314274 0.13156101 -0.085514806
0.027638918 -1.0384794 -0.07568992 -0.19936556 0.09301375 -0.03432971 -0.0063311057 -0.012438059
0.014915808 0.13393016 0.01565778 0.1081915 0.18708506 -0.37136412 0.15639196 -0.020285387
00000000: 6612 c23c b442 aabd 37d4 0b3c 7742 2cbc
00000010: 7fe1 c5bc 5ce1 ddbc f29a bb3d 93e9 623e
00000020: b5af 7d3b 3724 63bd 259c 5dbb a653 ec3d
00000030: 1c28 83bd b375 20bd 5caf 493e 1e2a 2e3e
00000040: 397c 263e 86bc 48bd 02b8 593e b61e 2cbe
00000050: 01a9 863d 0ec9 ae3d 5eb0 e4bd af5d e03d
00000060: 1fef 1bbd fda9 cf3d fae9 473d b36c a2bc
00000070: 51a4 f03b ed01 de3c 8b34 25bd 5273 983b
00000080: ad01 443b 9dd0 d8bd ac51 f43d 8de0 d8bb
00000090: 0397 333e 0d71 b73d a164 e03c 5236 08be
000000a0: 46db 45bd a231 f0bc 70f6 f73d 31db 85bd
000000b0: 236f fcbc 48a6 90bd 2db0 713d 26fe 23bd
000000c0: b0f6 a7bd e36b 29be 01f2 08be 11ef c73c
000000d0: 5bee 33bd 3ca7 e2bd 8436 d33d 3d6e 2a3e
000000e0: 1a2b 303e ab84 3ebd e9bd 5b3e 6495 55bd
000000f0: e52c 873d ff68 283e b75f e6bc f9e2 2e3d
00000100: 13fb e4bd 2e0c a53d aeee 1bbd fbd3 32bc
00000110: 22d4 3bbc 1783 eebd 91e0 df3d 2511 e9bd
00000120: c4d5 fe3c f915 123e cba2 793d d026 4cbe
00000130: 22f2 aebc 1da9 0c3d 98f9 003e 631c 8ebc
00000140: af79 b0bd 17c8 9bbd 9cad 21be a5a8 7fbd
00000150: 9cf5 713c 681d acbc ed08 56bc cf01 303d
00000160: 4ed2 613c dd75 3cbe 9842 03be e604 de3d
00000170: 6bca 2b3c 0f2a dc3d 2cbf e8bd f809 043e
00000180: aee2 b13e b10f ddbc aeb4 523d b7cf 313e
00000190: e321 8d3c 06fd 6bbc 62a7 593d 7fcd fa3d
000001a0: 0eb2 8e3d ec0d 513d a334 12be 6800 7d3d
000001b0: e351 76bd bc90 b9bd cd33 ba3c 6abf 67bd
000001c0: 487e c9bd 60bf 5bbd be84 dbbd 7b4e 213e
000001d0: c278 bcbd 0aaa 65bd bb0c 773e cafe 123e
000001e0: 1479 8bbe 21a7 abbd f059 1b3d 34af 463d
000001f0: 387a 8abc c1f6 57bc e214 dc3d add7 543d
00000200: f1ab 493e a699 bcbd ed91 203d 250a f2bc
00000210: c9cb f5bc 1e6a 5dbd 7e5c 423d 1f50 e73b
00000220: f512 923d 8b89 ee3d 147f 1ebe 5c69 903d
00000230: 303f d9bb 9f24 013d 6b2d 9dbd 4b39 92bd
00000240: e042 ddbc a653 c3bd 2258 bc3d ec8a c53b
00000250: 5e8a 4d3d 879b c83d 65a0 ddbc 108d 3d36
00000260: 4a6e 173d 14e7 f0bc 9897 5bbd 130d c1bd
00000270: 013c afbd a325 f2bd b2b1 1dbd f595 53be
00000280: 7031 90bb a21f 1b3e 5766 b6bb a4b2 923a
00000290: 249c e1bd 5ff3 98bd c8b1 dfbd bbd8 ea3d
000002a0: d011 1d3d 7783 3fbe ef31 f33d cfb7 483d
000002b0: f989 00be 35e9 7d3d 1ec7 75bd cbdb eb3d
000002c0: 18a5 963d b50e 12bd c48c 9b3d 8aab 863d
000002d0: 0041 c2bc b6b8 d93d 6a03 e43c e534 873d
000002e0: 6f2d 3f3c dd5d bebd 57bf a73d ecb0 cbbd
000002f0: d272 3a3c 880e 19bd 9ba6 503c 16fe e53d
00000300: 40f4 283e 845d 80bd 503c 223a 9498 343d
00000310: 2aad 17bd d004 7fbd d267 03be a546 6fbe
00000320: 8e21 e73d 4a64 173c fdc9 35be d977 8c3d
00000330: 7015 5d3e 9db2 00be b5b3 a6bd 2a19 253e
00000340: baf2 f0bd 29f3 6fbe e3ae afbc 176c 8dbe
00000350: 41ce 123e 4f80 8dbb c29b 29bf 7991 313e
00000360: 9750 083e 3a8c 373e 20ae 30be 0b8e 6fbe
00000370: 35c1 233e efe2 153c ac82 1b3e 55fd 20be
00000380: d79e e4bd d3c8 153e 641b 4e3d 9835 09bd
00000390: dbe8 873d 48c8 823d 1fb3 ee3d 6c89 923c
000003a0: 6f2d 45be a2cf ebbd 9b84 aa3c a5f4 9cbe
000003b0: 5b20 c5be f838 9ebc eeb7 063e 6322 afbd
000003c0: 036b e23c e5ec 84bf 5103 9bbd 7c26 4cbe
000003d0: fe7d be3d 4f9d 0cbd 2a75 cfbb 00c9 4bbc
000003e0: 6f61 743c fd24 093e bf44 803c 8193 dd3d
000003f0: 3a93 3f3e 7023 bebe 3725 203e 8a2d a6bc

bias f4 [128]
-0.045978766 -0.03273251 0.05267734 0.0046255724 0.032607567 0.04137768 -0.04036684 -0.08135725
-0.117038265 0.011465065 0.09746368 0.1069733 0.04099558 0.03866187 0.06405507 0.08096734
0.15329938 -0.17551118 0.06615519 0.048664704 -0.087197624 -0.023082705 0.12205808 -0.014246088
-0.18056457 -0.05514397 -0.053515475 0.08939981 -0.08787288 0.06969689 -0.014205956 0.109883554
0.09719398 0.03427201 -0.027635455 -0.0030001397 -0.018878857 -0.0087733045 0.06514123 -0.055774443
-0.1515536 -0.071260154 0.05613681 -0.06249655 -0.096068986 -0.112245955 -0.08311756 -0.09035743
-0.022762623 0.009693733 0.07908828 -0.08409199 0.051220715 -0.03195265 -0.06872721 -0.033423305
0.05783983 0.13112707 0.038630515 -0.13241282 -0.028097808 0.056288265 -0.07567883 0.02177852
-0.009694804 -0.018838892 -0.101596884 0.011581701 0.09676646 -0.060776774 0.1238923 0.07746784
-0.0149434665 0.046296857 -0.06894211 0.1324634 0.06558991 0.07119193 -0.0956898 0.05750044
-0.049967583 -0.07041724 0.077615745 -0.07246538 -0.031881608 -0.10584547 0.13478567 0.020566087
0.009808187 0.058029734 0.00070991495 -0.044090223 -0.052118283 -0.08670626 0.15749766 -0.011530006
0.0075609004 0.15028648 0.045092683 0.1148594 -0.009410703 -0.004878856 -0.0045206794 -0.09222909
-0.077351004 0.11308634 0.011683779 -0.053596824 0.050559837 0.108247235 -0.13078603 0.07964352
0.11924294 0.050487377 -0.051938284 0.023414854 -0.053833853 -0.119996056 0.09279816 0.04958932
-0.11505367 0.04954786 0.07388291 -0.043531343 -0.008183619 0.008252753 0.052326817 0.057131093
00000000: 3b54 3cbd 8612 06bd 32c4 573d 1d92 973b
00000010: 838f 053d a47b 293d b357 25bd a19e a6bd
00000020: c2b1 efbd f8d7 3b3c 0a9b c73d d114 db3d
00000030: fbea 273d e95b 1e3d 4e2f 833d 34d2 a53d
00000040: 83fa 1c3e 34b9 33be 5f7c 873d a454 473d
00000050: ab94 b2bd f117 bdbc 96f9 f93d 6d68 69bc
00000060: ebe5 38be a5de 61bd 0b33 5bbd 3f17 b73d
00000070: b2f6 b3bd 3ebd 8e3d 19c0 68bc a10a e13d
00000080: a30d c73d cf60 0c3d c063 e2bc fe9d 44bb
00000090: d5a7 9abc e8bd 0fbc c468 853d be73 64bd
000000a0: de30 1bbe d8f0 91bd b6ef 653d 62fc 7fbd
000000b0: d1bf c4bd 35e1 e5bd 8a39 aabd 510d b9bd
000000c0: ae78 babc 77d2 1e3c 09f9 a13d 6c38 acbd
000000d0: d0cc 513d c8e0 02bd dac0 8cbd e0e6 08bd
000000e0: 75e9 6c3d 2d46 063e 083b 1e3d 3a97 07be
000000f0: 602d e6bc 868e 663d 81fd 9abd de68 b23c
00000100: f5d6 1ebc 0554 9abc 0712 d0bd 2dc1 3d3c
00000110: 7e2d c63d 11f1 78bd 3fbb fd3d 75a7 9e3d
00000120: 71d5 74bc c6a1 3d3d 8531 8dbd 7ca4 073e
00000130: 0154 863d 13cd 913d 04f9 c3bd 9585 6b3d
00000140: cfaa 4cbd ea36 90bd 01f5 9e3d bb68 94bd
00000150: 4a96 02bd 83c5 d8bd 4105 0a3e 367a a83c
00000160: 85b2 203c 96b0 6d3d 9619 3a3a f397 34bd
00000170: fb79 55bd 0d93 b1bd 1147 213e 5ae8 3cbc
00000180: 6ec1 f73b b3e4 193e 1bb3 383d 683b eb3d
00000190: 592f 1abc cfde 9fbb 3522 94bb 9be2 bcbd
000001a0: 346a 9ebd d099 e73d 526d 3f3c 5888 5bbd
000001b0: d517 4f3d bab0 dd3d c6ec 05be 241c a33d
000001c0: a435 f43d dacb 4e3d 3dbd 54bd 82d0 bf3c
000001d0: e380 5cbd 7ec0 f5bd f60c be3d 2c1e 4b3d
000001e0: 42a1 ebbd b2f2 4a3d ec4f 973d ec4d 32bd
000001f0: 9614 06bc 8e36 073c a554 563d 4b02 6a3d

weight f4 [128, 128]
0.038530868 0.054164343 -0.003925972 0.16835172 0.07136308 -0.09839922 0.009685205 0.09816874
-0.077677235 0.124150164 0.28426448 -0.23201463 0.015009192 -0.04285726 0.31359008 0.22887921
0.045460682 0.047054768 0.29654676 0.03258545 0.044051237 0.007687307 -0.012028559 0.17967018
0.15488996 0.0068231015 0.11304492 -0.077810034 0.12079179 0.0391171 0.10198364 0.010825012
0.029318687 0.08271725 0.043160208 0.22131401 -0.044154335 0.0245019 -0.11399525 -0.18930815
0.1283211 0.062468097 0.0068096044 0.03331204 0.1314513 0.032925192 0.123444274 -0.039099563
0.14194465 -0.35695195 0.0122458 0.18451598 -0.2255117 -0.18537444 0.09470529 0.12733264
-0.07109827 0.07017591 0.093220055 0.02774935 0.097172335 -0.033500016 -0.058418006 0.049638104
0.03580928 0.20303622 -0.016743653 0.060769085 0.08101202 -0.23128559 -0.21257082 0.13146205
0.520102 0.05444823 0.034465786 -0.056468714 -0.013517947 -0.044351418 0.023170104 -0.074764214
0.09145289 -0.021932948 -0.0730138 0.09497656 -0.0705718 0.05499105 -0.009493394 0.044550877
-0.12376129 0.01263188 -0.1970253 0.11782469 -0.128827 0.014995542 0.076148614 0.05572249
-0.013638888 0.00029308547 0.012566021 -0.034376945 0.02846382 0.104833275 -0.18664013 0.09883423
-0.49350914 0.027710222 -0.064948454 0.11447051 -0.05915683 -0.03708604 -0.2369571 0.11446448
0.11300892 0.20157847 0.073621966 -0.056796767 0.19390012 0.17006588 0.019412095 -0.079220496
0.1282341 0.005074076 -0.22282282 0.118227154 -0.058573045 -0.00393719 0.025039092 0.09988414
-0.007405871 0.008708005 -0.14641152 0.4632283 0.015531242 -0.003311466 -0.056542594 0.20301126
-0.29149204 0.7334436 -0.29816464 0.1344943 -0.14685923 -0.15719332 -0.10002484 0.5915564
0.07032727 -0.14775857 0.9019126 -0.14856628 0.11795547 0.18105288 -0.022162423 0.2919959
0.048196156 -0.157832 0.16285129 -0.10865344 -0.17719175 -0.09821404 0.20719506 -0.013018764
-0.31710842 -0.13630328 -0.04375482 0.632147 0.116365924 -0.03450444 0.35928676 0.24745332
-0.08314527 0.075778075 -0.17800345 -0.01484806 -0.16207513 -0.077502124 -0.2940842 0.09760167
-0.07036257 -0.34679168 -0.08830395 -0.1760165 -0.1909597 -0.049414445 -0.16557282 0.19402415
-0.14818251 -0.06903582 -0.03720185 0.01936491 0.17336157 0.07942296 -0.015464125 0.08027237
-0.032671694 0.4196072 -0.10848515 0.30353042 -0.22797965 0.6261138 -0.2993273 0.035362106
1.5645278 -0.2343923 -0.06480888 -0.102511525 -0.008134119 -0.02951367 0.21208267 -0.006340701
-0.16229354 0.026093204 -0.22592269 -0.26950604 0.069514535 -0.16499574 -0.18345645 -0.1776096
-0.07095036 7.823017e-05 0.6242838 0.12893087 -0.15802963 0.2914535 -0.2857072 0.102401875
-0.051317647 0.22521128 -0.05696833 -0.17363241 0.06244944 0.006078137 -0.094876744 -0.04951672
0.117750764 -0.097441226 -0.07076086 0.09294502 -0.06848888 -0.03712951 -0.24428234 -0.006631679
0.85663545 0.042425018 0.2685355 -0.27937517 0.08970455 0.11653598 0.26838693 0.15890394
-0.20531069 0.16169553 -0.38278967 -0.22254224 0.069491304 -0.16816223 0.051537424 -0.019213608
00000000: 8bd2 1d3d 6edb 5d3d 71a5 80bb 6564 2c3e
00000010: ce26 923d 8885 c9bd b2ae 1e3c b10c c93d
00000020: 3e15 9fbd 7142 fe3d 1d8b 913e 3e95 6dbe
00000030: 1de9 753c 188b 2fbd e18e a03e 505f 6a3e
00000040: fb34 3a3d 80bc 403d fad4 973e 5278 053d
00000050: 126f 343d cee5 fb3b 6f13 45bc 76fb 373e
00000060: 799b 1e3e 5394 df3b 1884 e73d de5a 9fbd
00000070: b061 f73d 4139 203d ccdc d03d 645b 313c
00000080: be2d f03c a967 a93d c2c8 303d 24a0 623e
00000090: 2ddb 34bd 35b8 c83c 5776 e9bd ffd9 41be
000000a0: 9b66 033e 8cde 7f3d 1a23 df3b 3572 083d
000000b0: 2b9b 063e 91dc 063d 5ad0 fc3d dd26 20bd
000000c0: f059 113e 68c2 b6be 9ca2 483c c2f1 3c3e
000000d0: 8aec 66be ccd2 3dbe d9f4 c13d 7d63 023e
000000e0: f89b 91bd 63b8 8f3d 28ea be3d 9b52 e33c
000000f0: 4a02 c73d 5037 09bd b847 6fbd 5351 4b3d
00000100: c0ac 123d bae8 4f3e fc29 89bc 01e9 783d
00000110: a1e9 a53d 21d6 6cbe 2aac 59be fd9d 063e
00000120: 6825 053f 1b05 5f3d ff2b 0d3d bd4b 67bd
00000130: 617a 5dbc d5a9 35bd 3bcf bd3c fb1d 99bd
00000140: a74b bb3d baac b3bc 4288 95bd 1283 c23d
00000150: f387 90bd 4c3e 613d 2e8a 1bbc fb7a 363d
00000160: 8f76 fdbd f2f5 4e3c 00c1 49be 124e f13d
00000170: 3aeb 03be ddaf 753c cef3 9b3d 443d 643d
00000180: a475 5fbc 44a9 9939 b6e1 4d3c d7ce 0cbd
00000190: f52c e93c d4b2 d63d 971e 3fbe 9a69 ca3d
000001a0: 3bad fcbe 8c00 e33c b203 85bd 846f ea3d
000001b0: 6f4e 72bd 88e7 17bd e2a4 72be 5a6c ea3d
000001c0: 3871 e73d 966a 4e3e 1dc7 963d baa3 68bd
000001d0: c18d 463e c025 2e3e 1d06 9f3c 5b3e a2bd
000001e0: cd4f 033e 6f44 a63b aa2b 64be 1421 f23d
000001f0: 4aea 6fbd 8b03 81bb c81e cd3c 0e90 cc3d
00000200: f3ac f2bb 05ac 0e3c e7ec 15be 422c ed3e
00000210: c076 7e3c 2e05 59bb 3599 67bd 2fe2 4f3e
00000220: 723e 95be f6c2 3b3f 09a9 98be e0b8 093e
00000230: 4462 16be 49f7 20be d3d9 ccbd 3d70 173f
00000240: be07 903d 064e 17be bfe3 663f c221 18be
00000250: a392 f13d ed65 393e f88d b5bc 7d80 953e
00000260: 5569 453d b69e 21be 7dc2 263e b285 debd
00000270: c171 35be 7124 c9bd f12a 543e a74c 55bc
00000280: 095c a2be 1693 0bbe 4138 33bd 63d4 213f
00000290: 4251 ee3d 8754 0dbd 6ff4 b73e 6764 7d3e
000002a0: 1148 aabd 8931 9b3d 8946 36be 4745 73bc
000002b0: 06f7 25be 6fb9 9ebd 3492 96be 62e3 c73d
000002c0: 401a 90bd ae8e b1be b4d8 b4bd ab3d 34be
000002d0: f18a 43be cd66 4abd ec8b 29be 44ae 463e
000002e0: 28bd 17be a762 8dbd f860 18bd 29a3 9e3c
000002f0: b285 313e 81a8 a23d 3e5d 7dbc d765 a43d
00000300: c1d2 05bd c1d6 d63e 762d debd 5768 9b3e
00000310: 7f73 69be fe48 203f 6e41 99be dbd7 103d
00000320: 7242 c83f 8904 70be 85ba 84bd 90f1 d1bd
00000330: f844 05bc a7c6 f1bc 332c 593e a8c5 cfbb
00000340: 4730 26be 6ac1 d53c 4758 67be b2fc 89be
00000350: a35d 8e3d a5f4 28be 02dc 3bbe 4adf 35be
00000360: 6c4e 91bd 810f a438 10d1 1f3f 7406 043e
00000370: 85d2 21be 6539 953e 3748 92be 13b8 d13d
00000380: 7432 52bd c99d 663e a057 69bd b2cc 31be
00000390: fcca 7f3d 1c2b c73b bd4e c2bd 0bd2 4abd
000003a0: 5027 f13d 448f c7bd 12eb 90bd f559 be3d
000003b0: e643 8cbd 1d15 18bd 2625 7abe 8e4e d9bb
000003c0: 764c 5b3f dbc5 2d3d 7c7d 893e 430a 8fbe
000003d0: 05b7 b73d 6aaa ee3d 036a 893e b7b7 223e
000003e0: f73c 52be 8393 253e 02fd c3be 1de2 63be
000003f0: 7551 8e3d b832 2cbe e818 533d db65 9dbc

bias f4 [128]
-0.08198004 0.017204642 -0.03163144 -0.042576 0.065393806 0.013357075 -0.04477812 -0.036836177
0.08536845 -0.041894715 -0.1204974 -0.07100371 -0.05956568 0.014259508 -0.014261141 0.06576455
0.026651176 0.022000382 0.03125762 0.047545426 0.03988336 0.048237476 -0.014621971 0.101316124
0.008176865 0.079013065 0.1004959 -0.1168866 -0.0319077 -0.010980182 -0.070845574 0.050152604
-0.04041243 0.011414671 -0.0096171945 -0.0041155443 -0.056236472 -0.005699496 0.06763109 -0.051426433
0.034383334 -0.045340553 -0.14201389 0.007498515 0.025066644 -0.09063273 -0.063049704 0.18389465
0.022890227 0.0018964106 -0.06458423 -0.022645047 0.059998676 0.053279202 0.049205214 0.13318071
0.025399014 0.0182155 -0.1410118 0.0586825 0.012110287 -0.12325566 -0.07185103 0.03943791
-0.01583805 0.07499615 0.021297464 0.04818327 0.060451444 0.048276324 0.06559683 0.0460971
0.13155384 -0.0053813406 0.06538563 0.032835413 -0.02993649 -0.037958477 -0.027939446 0.1035833
0.049520586 0.045007076 -0.06897328 -0.047742493 0.0026757333 0.017371442 -0.023622321 0.0958187
-0.014610454 -0.0014353299 -0.037154354 0.028254135 -0.066981345 -0.055306412 0.0036421025 -0.101727895
-0.041060925 0.048610803 0.038345404 -0.08947807 0.061810132 0.080724396 0.05236435 0.02476098
-0.022416554 -0.093306385 0.030267837 0.067156255 0.023053993 -0.026296927 -0.06834107 -0.04749779
-0.0026994704 0.018387526 -0.07576816 -0.002290483 -0.0072701406 -0.094454125 -0.051537953 0.025703358
-0.0778199 -0.060083948 0.0003623556 0.019656822 0.19616719 0.00092794234 -0.007693609 0.02013748
00000000: 27e5 a7bd c0f0 8c3c f88f 01bd 2c64 2ebd
00000010: 30ed 853d a2d7 5a3c 4369 37bd 88e1 16bd
00000020: a7d5 ae3d cb99 2bbd 57c7 f6bd 656a 91bd
00000030: 24fb 73bd b6a0 693c 90a7 69bc 90af 863d
00000040: 9153 da3c 253a b43c fd07 003d febe 423d
00000050: bc5c 233d a994 453d fe90 6fbc d47e cf3d
00000060: 42f8 053c 9ad1 a13d cbd0 cd3d 3e62 efbd
00000070: a6b1 02bd 39e6 33bc 7c17 91bd d16c 4d3d
00000080: 8187 25bd 9a04 3b3c 7091 1dbc b0db 86bb
00000090: 3758 66bd d6c2 babb 2b82 8a3d 86a4 52bd
000000a0: 8ad5 0c3d 04b7 39bd 176c 11be 1ab6 f53b
000000b0: 9058 cd3c a79d b9bd 3420 81bd e14e 3c3e
000000c0: 4984 bb3c fb90 f83a bd44 84bd 1b82 b9bc
000000d0: 2cc1 753d 4b3b 5a3d 688b 493d 8660 083e
000000e0: 9811 d03c ac38 953c 6665 10be 105d 703d
000000f0: 3a6a 463c 776d fcbd a226 93bd a589 213d
00000100: ccbe 81bc 9597 993d 0578 ae3c d25b 453d
00000110: ef9b 773d 65bd 453d a157 863d 50d0 3c3d
00000120: 0db6 063e f555 b0bb e7e8 853d 6d7e 063d
00000130: 5f3d f5bc 597a 1bbd 44e1 e4bc 7b23 d43d
00000140: 19d6 4a3d 5759 383d dd41 8dbd a28d 43bd
00000150: 5b5b 2f3b 8e4e 8e3c 9983 c1bc 983c c43d
00000160: b060 6fbc ae21 bcba 2a2f 18bd 3775 e73c
00000170: 842d 89bd fa88 62bd 57b0 6e3b b756 d0bd
00000180: 802f 28bd 1f1c 473d 1210 1d3d 4740 b7bd
00000190: 9f2c 7d3d d552 a53d 007c 563d 8ad7 ca3c
000001a0: eca2 b7bc 6b17 bfbd 41f4 f73c 3889 893d
000001b0: badb bc3c a76c d7bc 67f6 8bbd 0b8d 42bd
000001c0: 99e9 30bb 70a1 963c 562c 9bbd ee1b 16bb
000001d0: 5c3a eebb 2a71 c1bd 7619 53bd d98f d23c
000001e0: 0a60 9fbd 961a 76bd 8cfa bd39 5807 a13c
000001f0: 0de0 483e 2841 733a ac1a fcbb 5bf7 a43c

weight f4 [64, 128]
-0.17696832 0.036012888 -0.6499326 -0.13565682 -0.07991907 -0.18646856 -0.056437496 0.0044246046
0.07812883 -0.18245304 -0.13405485 -0.07066688 -0.14070043 -0.1343078 -0.11987656 -0.17523097
0.07617869 -0.03253759 0.4379955 0.10436894 -0.039400324 0.09648914 -0.053436797 -0.10401524
-0.07761745 0.18905753 -0.09420455 -0.27106076 0.48212644 0.11265455 -0.07853091 -0.1755597
-0.16573188 -0.13749225 -0.12674889 -0.14062425 8.15583e-05 0.0383436 0.293854 -0.12077547
0.049104504 -0.19135544 0.10987332 -0.17252064 -0.2029004 0.059175815 -0.32672715 0.15001498
0.07084921 -0.1640826 -0.2136843 -0.12385567 -0.15492178 0.09749773 -0.14890969 -0.034781124
-0.04599094 -0.08262812 0.43683556 -0.2541671 -0.21517198 0.113206275 -0.040316686 -0.14558701
-0.0006353293 0.049886588 -0.19963789 -0.14194557 -0.11420456 -0.15916528 0.16524357 -0.1339464
0.031439863 -0.022981472 -0.15279709 -0.046474814 0.010861846 -0.18251267 -0.075144075 0.10454272
0.03610706 0.03599856 -0.11135135 0.015345422 -0.14092754 -0.14840369 -0.014265399 -0.004884914
-0.0028906295 1.2900264 0.12583698 0.0719278 -0.10398653 -0.10468813 -0.10469207 -0.21922953
-0.057619005 -0.14243118 0.08523694 -0.21732628 0.08297015 0.052998856 -0.0817899 -0.11395385
-0.16922748 -0.05761663 -0.036012013 0.084823735 -0.06606585 -0.035872173 -0.089898 -0.023243992
0.090499476 -0.10795049 0.050913308 -0.15246812 0.14763813 0.27183098 0.14454605 -0.14816953
-0.21786729 -0.12097361 0.23174979 0.009758543 -0.0714849 -0.015194432 -0.14465311 0.12906042
-0.047780745 0.04924266 -0.5964568 -0.08063851 -0.032058097 -0.1679892 -0.12423395 0.080415584
-0.051131018 -0.018294241 -0.029911214 0.008420955 -0.13220917 -0.009296079 0.012307404 0.107709624
-0.00096072856 -0.113207445 0.15626018 -0.0039245677 -0.06135149 -0.028170077 -0.18091534 -0.23403491
-0.29250312 0.18433924 -0.19884641 -0.23912841 0.36295196 0.13743445 -0.08327102 -0.10002236
0.01847495 0.023030957 -0.021293383 -0.089710124 -0.052086346 0.14752315 0.20795907 0.0016455256
0.035012696 -0.07142673 0.5641143 0.055475906 0.026383432 -0.20014553 -0.3444327 -0.2989922
0.094194055 0.02452037 -0.018657584 -0.08333203 -0.10771559 -0.397959 -0.1303672 -0.29458395
0.08577498 0.17908378 0.28536138 -0.12401116 -0.104330845 0.035694867 -0.11026123 -0.11813297
-0.01698628 -0.032134622 -0.030800555 0.0465208 0.044453207 0.07132158 0.32355773 0.019247545
0.025176825 0.7431204 0.011097353 -0.14000154 0.09072414 -0.022868903 -0.121331275 0.0763115
0.071454845 0.037723992 -0.1515719 -0.0425286 0.009725309 -0.07151246 0.12911473 0.11561525
-0.044716824 0.3437749 -0.0034512873 0.058392428 -0.014368488 -0.15637513 -0.113484114 -0.17828687
-0.053985424 -0.055623256 0.3543568 0.01939184 0.0033614403 -0.014112756 0.0305745 0.07023418
-0.1331626 -0.037042536 0.07698627 0.050369106 0.18953238 -0.12552316 -0.06294488 -0.013742204
-0.03500591 -0.002545976 0.3714636 -0.010589691 -0.0067747505 0.50505495 0.2710366 -0.05667593
0.004558931 -0.1404826 0.15537958 -0.28022107 0.15009764 -0.22983709 0.060416784 0.06118064
00000000: 2f37 35be 4082 133d fc61 26bf 9fe9 0abe
00000010: 9cac a3bd 9df1 3ebe 012b 67bd 46fc 903b
00000020: 0202 a03d f8d4 3abe ad45 09be ccb9 90bd
00000030: c613 10be fc87 09be d881 f5bd bf6f 33be
00000040: 9303 9c3d 2346 05bd f240 e03e 62bf d53d
00000050: 3c62 21bd 199c c53d 8be0 5abd f105 d5bd
00000060: e6f5 9ebd 4c98 413e 51ee c0bd 7ac8 8abe
00000070: 47d9 f63e 6eb7 e63d d0d4 a0bd ecc5 33be
00000080: 9eb5 29be c5ca 0cbe 76ca 01be ceff 0fbe
00000090: 470a ab38 2e0e 1d3d 0874 963e 2159 f7bd
000000a0: ce21 493d aef2 43be 4305 e13d 40a9 30be
000000b0: 1fc5 4fbe 5762 723d c848 a7be 879d 193e
000000c0: 6419 913d 4505 28be 0fd0 5abe 0ba8 fdbd
000000d0: d1a3 1ebe e4ac c73d c87b 18be a776 0ebd
000000e0: ff60 3cbd ef38 a9bd e9a8 df3e 3122 82be
000000f0: 0b56 5cbe b1d8 e73d 1c23 25bd c314 15be
00000100: 3a8c 26ba e155 4c3d e06d 4cbe 2e5a 11be
00000110: 15e4 e9bd 39fc 22be 9c35 293e 3f29 09be
00000120: 16c7 003d a443 bcbc d776 1cbe 605c 3ebd
00000130: e2f5 313c 9ae4 3abe 23e5 99bd 7e1a d63d
00000140: ffe4 133d 3a73 133d 2d0c e4bd 5d6b 7b3c
00000150: 4f4f 10be 23f7 17be 6cb9 69bc a111 a0bb
00000160: b770 3dbb 961f a53f 69db 003e e24e 933d
00000170: e4f6 d4bd bb66 d6bd cc68 d6bd b57d 60be
00000180: e801 6cbd 7bd9 11be b490 ae3d c88a 5ebe
00000190: 41ec a93d 5415 593d 7781 a7bd a360 e9bd
000001a0: f849 2dbe 6aff 6bbd 5581 13bd 11b8 ad3d
000001b0: 884d 87bd b3ee 12bd 711c b8bd 2f6a bebc
000001c0: ca57 b93d 2615 ddbd 798a 503d 9a20 1cbe
000001d0: 732e 173e 6e2d 8b3e e103 143e c1b9 17be
000001e0: 9a18 5fbe 03c1 f7bd d14f 6d3e 4ce2 1f3c
000001f0: ad66 92bd 11f2 78bc f21f 14be 6a28 043e
00000200: beb5 43bd acb2 493d 65b1 18bf ce25 a5bd
00000210: 5a4f 03bd 5c05 2cbe 5f6e febd edb0 a43d
00000220: c26e 51bd cedd 95bc 5d08 f5bc 0cf8 093c
00000230: d761 07be 954e 18bc fea4 493c dd96 dc3d
00000240: 67d9 7bba 4ed9 e7bd ab02 203e a999 80bb
00000250: b34b 7bbd efc4 e6bc df41 39be d9a6 6fbe
00000260: f8c2 95be 6dc3 3c3e 659e 4bbe 14de 74be
00000270: d7d4 b93e 9ebb 0c3e ff89 aabd 86d8 ccbd
00000280: c758 973c 6bab bc3c 766f aebc f1b9 b7bd
00000290: 7e58 55bd 4f10 173e 39f3 543e adae d73a
000002a0: 7969 0f3d 2d48 92bd cb69 103f b43a 633d
000002b0: 1122 d83c f3f2 4cbe 7c59 b0be 8115 99be
000002c0: d0e8 c03d f1de c83c cad7 98bc fca9 aabd
000002d0: fe99 dcbd 48c1 cbbe fb7e 05be b5d3 96be
000002e0: cbaa af3d bd61 373e e31a 923e 90f9 fdbd
000002f0: 69ab d5bd c834 123d a4d0 e1bd b3ef f1bd
00000300: d026 8bbc 989f 03bd 7251 fcbc 988c 3e3d
00000310: 9114 363d 0c11 923d 5ca9 a53e 07ad 9d3c
00000320: a13f ce3c 233d 3e3f acd1 353c 905c 0fbe
00000330: 94cd b93d 9157 bbbc 887c f8bd 3449 9c3d
00000340: eb56 923d 7984 1a3d aa35 1bbe 7832 2ebd
00000350: e756 1f3c 2075 92bd a736 043e b0c7 ec3d
00000360: fd28 37bd 4403 b03e fe2e 62bb e62c 6f3d
00000370: cf69 6bbc cd20 20be 5c6a e8bd d590 36be
00000380: d21f 5dbd 36d5 63bd 416e b53e a3db 9e3c
00000390: 9c4b 5c3b 3039 67bc 6077 fa3c f0d6 8f3d
000003a0: c75b 08be eab9 17bd faaa 9d3d d64f 4e3d
000003b0: c714 423e 2589 00be 3fe9 80bd fb26 61bc
000003c0: 5b62 0fbd 64da 26bb 7a30 be3e 6280 2dbc
000003d0: bafe ddbb 484b 013f 4fc5 8a3e 0525 68bd
000003e0: 1663 953b acda 0fbe d31b 1f3e 2379 8fbe
000003f0: 32b3 193e 6a5a 6bbe 9777 773d 8d98 7a3d

bias f4 [64]
-0.0021244844 -0.05640543 0.04645206 0.04729253 0.083759554 0.10918397 -0.001817889 -0.032720957
-0.023266772 0.17199695 -0.004270232 -0.012017309 -0.053715233 0.0045624985 0.027988838 0.12205273
0.0312726 0.05234487 0.055557907 0.2339001 -0.032277726 0.07242287 0.0844395 0.07126439
-0.09918483 0.075303 0.15876274 0.05616794 0.025123581 -0.014572393 0.377616 0.12706688
0.076264635 0.0023836156 0.112585306 0.053652555 0.10784784 0.038193393 0.11140603 -0.0020311158
0.093867704 0.025705209 0.037875835 0.069947936 0.05655317 0.027585004 0.10314471 0.0010650761
-0.082408905 0.10351015 0.067498736 -0.0030741657 0.0946242 -0.038656447 0.08470705 0.16079232
-0.05446912 -0.120297246 0.16952528 -0.04899089 0.02324513 -0.029785998 -0.0077916784 0.10534757
00000000: ef3a 0bbb 6109 67bd 8444 3e3d d0b5 413d
00000010: 218a ab3d d89b df3d 3c46 eeba 6906 06bd
00000020: f599 bebc f81f 303e 4ded 8bbb 3fe4 44bc
00000030: 8104 5cbd 0381 953b d948 e53c c8f6 f93d
00000040: b317 003d 9367 563d b090 633d 8283 6f3e
00000050: a635 04bd 7152 943d 9eee ac3d 11f3 913d
00000060: 6b21 cbbd 7638 9a3d b392 223e 5b10 663d
00000070: f8cf cd3c 0cc1 6ebc e256 c13e d21d 023e
00000080: a230 9c3d 6f36 1c3b 2093 e63d c8c2 5b3d
00000090: 54df dc3d ad70 1c3d d828 e43d 781c 05bb
000000a0: b63d c03d bb93 d23c b123 1b3d dd40 8f3d
000000b0: 4ca4 673d f2f9 e13c 893d d33d 069a 8b3a
000000c0: 00c6 a8bd 21fd d33d c73c 8a3d f177 49bb
000000d0: 55ca c13d 3956 1ebd e47a ad3d bea6 243e
000000e0: 031b 5fbd 675e f6bd 0998 2d3e acaa 48bd
000000f0: 926c be3c c401 f4bc 5651 ffbb 77c0 d73d

weight f4 [64, 64]
-0.059093 -0.049378593 0.18990335 0.29874498 0.24231134 0.06690036 0.10433352 0.21041363
0.1789396 -0.1556771 -0.09678353 0.2798248 0.094242565 -0.051640138 0.14289345 0.06677838
-0.064425796 -0.057106636 -0.08784484 -0.076988816 -0.02629947 0.18631256 -0.06194277 -0.0084247645
-0.21041529 0.21622467 -0.0057176705 0.17127293 0.071542464 0.07028431 0.12054896 0.1963334
0.15634671 0.16999549 0.045317158 0.25359342 0.066494 -0.15072997 0.1189604 -0.08913354
0.1557388 -0.11361963 -0.083600365 0.192961 0.091330186 -0.064642236 0.0111315185 -0.068529084
-0.22019213 -0.05116251 0.21332842 0.19158305 0.13250788 0.10040775 -0.12726343 0.08486837
0.021705989 -0.03987082 0.065279245 0.119063735 0.16968083 0.095568635 0.0030563064 0.032139923
0.09547029 -0.13046367 0.17311098 0.23921967 0.1484602 0.018531354 0.10559699 0.16217232
0.09487432 -0.046071507 -0.12636773 0.23411404 -0.2020524 -0.30587268 0.038153395 0.2447906
-0.119454846 -0.24179468 -0.040185083 -0.09665056 0.10536326 0.22047451 0.10207182 0.12949069
-0.34411046 0.048016213 0.054227613 -0.0109419115 -0.0030423733 -0.05141627 0.070498295 0.03650972
0.051541694 0.14344537 0.120150715 0.12640506 0.12050702 -0.21674839 0.17647807 -0.19698675
0.1389767 -0.07235772 -0.13108736 0.043894432 0.17068715 0.02267463 0.055678185 -0.15882213
-0.19625843 -0.041778 0.06800053 0.090236165 0.21742153 -0.18532626 -0.23135725 0.067616686
-0.06533114 -0.20811765 0.19911984 0.24807268 0.24385802 0.07133459 -0.13969949 0.07696998
0.0023641924 0.03655712 0.07053731 0.20482333 0.13657932 0.13400725 0.068171114 0.19391795
0.11770772 -0.20014225 -0.020518238 0.276441 -0.084570855 -0.027193235 -0.04714678 0.27438372
0.062833935 -0.047788277 0.11816613 -0.013496888 0.06070603 0.22163165 -0.19466111 0.2099946
0.057228588 0.15047139 0.0512639 -0.001157951 0.06202073 -0.12713112 0.09979845 0.24052666
0.18709306 0.064641215 0.043887686 0.103404015 0.22446834 -0.09367884 0.19576508 -0.23647621
0.0921249 0.023430366 -0.021875827 0.11197329 0.013001028 -0.0016305704 0.07372281 -0.13977951
-0.018895904 0.024465794 0.19195826 0.20539604 0.06422546 -0.087829135 -0.14459279 0.044845242
-0.03296918 0.016085837 0.102809496 0.10729723 0.18886504 0.23204511 -0.08782297 0.22290899
-0.123204455 -0.11702414 0.15149248 0.13289276 0.22409013 0.13273634 0.20265065 0.06590465
0.22487773 -0.096586436 -0.17879692 0.27173355 0.026562097 -0.009874097 -0.0065983953 0.044856694
0.022907576 -0.2974697 -0.08772363 0.06376594 0.16090955 0.21138723 -0.17071992 0.1061236
-0.16124298 0.18660899 0.04411495 0.038214896 0.16923845 -0.060635228 0.2861485 0.15798174
0.08195568 0.07818759 0.13759194 0.120688654 0.17905948 -0.20074536 0.1010302 -0.14183533
0.19616248 0.023490846 -0.030526552 0.21461384 -0.008664729 0.04617355 -0.058260202 -0.2163403
-0.25785652 -0.017602539 0.2659103 0.08079204 0.13224582 -0.03687972 -0.1727154 0.04660191
-0.16188687 -0.010121081 0.061931647 0.1303326 0.109312624 0.04661677 -0.119879775 0.03703497
00000000: 800b 72bd 3541 4abd 0676 423e 1af5 983e
00000010: 7720 783e 0e03 893d d0ac d53d ac76 573e
00000020: f13b 373e d169 1fbe 7236 c6bd 3245 8f3e
00000030: 3f02 c13d 9c84 53bd a952 123e 1ac3 883d
00000040: acf1 83bd a6e8 69bd ffe7 b3bd 50ac 9dbd
00000050: fc71 d7bc b8c8 3e3e b4b7 7dbd 0608 0abc
00000060: 1b77 57be 006a 5d3e 4c5b bbbb 2c62 2f3e
00000070: db84 923d 38f1 8f3d 60e2 f63d 9f0b 493e
00000080: 5a19 203e 4c13 2e3e 7c9e 393d ffd6 813e
00000090: 022e 883d f558 1abe 83a1 f33d a58b b6bd
000000a0: fe79 1f3e 69b1 e8bd ab36 abbd 9297 453e
000000b0: 520b bb3d 2663 84bd f960 363c fa58 8cbd
000000c0: 0c7a 61be c88f 51bd c472 5a3e 592e 443e
000000d0: 25b0 073e 94a2 cd3d 5851 02be 78cf ad3d
000000e0: c2d0 b13c 964f 23bd 20b1 853d b0d7 f33d
000000f0: d0c0 2d3e 7db9 c33d 504c 483b 27a5 033d
00000100: ed85 c33d 4598 05be 0144 313e 00f6 743e
00000110: f305 183e 11cf 973c 3c43 d83d 8010 263e
00000120: 784d c23d 7ab5 3cbd 8b66 01be 97bb 6f3e
00000130: d3e6 4ebe 589b 9cbe bc46 1c3d 63aa 7a3e
00000140: bea4 f4bd 0699 77be 1d99 24bd bbf0 c5bd
00000150: b1c8 d73d 12c4 613e 080b d13d 3599 043e
00000160: 3f2f b0be a6ac 443d c61d 5e3d b445 33bc
00000170: 8e62 47bb de99 52bd 6961 903d 378b 153d
00000180: 621d 533d 58e3 123e 9411 f63d 5470 013e
00000190: 62cc f63d 4af3 5dbe abb6 343e e5b6 49be
000001a0: e84f 0e3e 4930 94bd c43b 06be a6ca 333d
000001b0: 9dc8 2e3e 25c0 b93c cf0e 643d 45a2 22be
000001c0: f8f7 48be 681f 2bbd dd43 8b3d bdcd b83d
000001d0: c0a3 5e3e 2bc6 3dbe eae8 6cbe 9e7a 8a3d
000001e0: 55cc 85bd cb1c 55be 12e6 4b3e c406 7e3e
000001f0: ebb5 793e df17 923d 620d 0fbe 70a2 9d3d
00000200: 91f0 1a3b ebbc 153d dd75 903d 35bd 513e
00000210: 73db 0b3e 3239 093e 4c9d 8b3d 6d92 463e
00000220: bf10 f13d 17f2 4cbe dd15 a8bc ad89 8d3e
00000230: 7c33 adbd 59c4 debc fb1c 41bd 067c 8c3e
00000240: 14af 803d a4bd 43bd 1501 f23d 0d22 5dbc
00000250: e3a6 783d 68f3 623e 3e55 47be d308 573e
00000260: 8668 6a3d 2c15 1a3e 18fa 513d 63c6 97ba
00000270: 7309 7e3d a92e 02be 2163 cc3d 9f4c 763e
00000280: 5395 3f3e 9d62 843d 93c3 333d 7cc5 d33d
00000290: 07db 653e b1da bfbd a476 483e d226 72be
000002a0: fbab bc3d 0af1 bf3c ef34 b3bc 4152 e53d
000002b0: 4402 553c ddb8 d5ba fcfb 963d 5c22 0fbe
000002c0: 95cb 9abc 7d6c c83c b590 443e 5753 523e
000002d0: a388 833d c3df b3bd 2210 14be a5af 373d
000002e0: b10a 07bd 72c6 833c c98d d23d a6be db3d
000002f0: d665 413e 3c9d 6d3e 87dc b3bd 4142 643e
00000300: 9e52 fcbd 5aaa efbd d820 1b3e 0a15 083e
00000310: e277 653e 09ec 073e a783 4f3e 04f9 863d
00000320: 5946 663e 1ccf c5bd 8a16 37be a920 8b3e
00000330: c198 d93c f7c6 21bc 5a37 d8bb a7bb 373d
00000340: aba8 bb3c f34d 98be 72a8 b3bd b897 823d
00000350: 79c5 243e e575 583e 34d1 2ebe 5457 d93d
00000360: e11c 25be 6d16 3f3e e1b1 343d 3987 1c3d
00000370: d84c 2d3e a55c 78bd 0e82 923e f7c5 213e
00000380: 61d8 a73d d120 a03d e7e4 0c3e 9d2b f73d
00000390: 5e5b 373e 3190 4dbe ece8 ce3d 483d 11be
000003a0: d1de 483e e06f c03c d212 fabc bbc3 5b3e
000003b0: 82f6 0dbc 7a20 3d3d 40a2 6ebd 5088 5dbe
000003c0: c505 84be 3333 90bc 6525 883e 4c76 a53d
000003d0: 736b 073e 300f 17bd 4edc 30be a5e1 3e3d
000003e0: acc5 25be e4d2 25bc 0aac 7d3d e975 053e
000003f0: 4cdf df3d 3af1 3e3d 8783 f5bd fbb1 173d

bias f4 [64]
0.1999408 0.09818291 0.012379183 0.1759991 0.2684901 0.18497835 0.38375378 0.16632451
0.24257183 -0.07145479 0.16779213 -0.05061315 0.056381844 0.1093534 0.02770018 -0.14982747
0.49830934 0.021059254 -0.011813884 0.043634538 0.40813246 0.09378465 0.0947054 0.12499068
0.1295169 0.25095674 -0.017880267 0.069576606 -0.05126661 0.1807422 0.010181782 0.14035328
0.18130271 0.06982697 0.033945967 0.14575553 0.052922767 0.087221526 0.5007388 -0.00939857
0.21126635 0.19476968 0.053048607 0.11145157 0.08813949 0.24868216 0.23491229 -0.049558595
-0.097588316 0.110507295 0.13847753 0.21810952 -0.07328239 0.06844389 0.058634333 0.3214958
0.13571256 0.07669983 0.3114675 0.13054769 0.08026874 0.030829115 -0.054585874 0.27240133
00000000: 48bd 4c3e 1f14 c93d 0fd2 4a3c 1c39 343e
00000010: 8977 893e f76a 3d3e 607b c43e f950 2a3e
00000020: c064 783e e456 92bd b3d1 2b3e bc4f 4fbd
00000030: a6f0 663d adf4 df3d 7deb e23c 5f6c 19be
00000040: 6722 ff3e 7584 ac3c 058f 41bc 21ba 323d
00000050: bdf6 d03e 2b12 c03d e8f4 c13d 1dfb ff3d
00000060: 14a0 043e 677d 803e a379 92bc 2e7e 8e3d
00000070: f0fc 51bd 7c14 393e 7dd1 263c c5b8 0f3e
00000080: 6ba7 393e 7101 8f3d ed0a 0b3d f040 153e
00000090: 8bc5 583d 33a1 b23d 6b30 003f 76fc 19bc
000000a0: 3556 583e b471 473e 7f49 593d b940 e43d
000000b0: 7a82 b43d 89a6 7e3e d98c 703e f4fd 4abd
000000c0: 62dc c7bd a651 e23d 0ecd 0d3e 1a58 5f3e
000000d0: 1415 96bd 4f2c 8c3d 8e2a 703d 199b a43e
000000e0: 3cf8 0a3e cd14 9d3d ab78 9f3e 4bae 053e
000000f0: f063 a43d 578d fc3c 7095 5fbd 3078 8b3e

weight f4 [32, 64]
0.17588784 0.25646704 0.10784919 0.23138222 -0.6573997 0.08685952 0.2203308 0.101621196
-0.74910945 -0.11358961 0.17581566 -0.93056697 0.13533092 0.1551816 -0.8088904 0.0682537
0.8401843 -0.99220324 -1.0399045 -0.22822638 0.31522465 -0.87594134 0.16445157 -0.9411654
-0.34530115 0.21797164 -1.011952 0.20732632 0.11888216 -0.978358 0.16997431 -0.8160059
-1.0025768 0.24620602 0.13477401 0.25165376 0.08337814 -0.9564923 0.3420262 -1.0656378
-0.88208336 0.17924924 0.015519639 0.23530655 0.17237791 0.25636318 0.073039636 -0.90086716
-0.088269696 0.085583225 0.18738008 0.16952743 -0.9419491 -0.9528873 -1.0579119 0.15361086
-0.85929376 -0.5941056 0.05902811 0.13611335 -0.80785686 -0.86533695 -0.81746686 0.43883866
0.27440456 0.07972888 0.2534726 0.16931678 -0.510707 0.078594 0.11816181 0.13325356
-0.7894109 0.02093607 0.1894018 -1.0158299 0.23394117 0.038163606 -0.9762961 0.10306772
0.7785955 -1.1159974 -0.8827865 -0.02510983 0.27992442 -0.88785815 0.064645596 -0.92483824
-0.3096036 0.039154787 -1.0240643 0.29710853 0.20502506 -0.931423 0.08985391 -1.005762
-0.931631 0.17003345 0.23289183 0.066860676 0.28532848 -0.7294049 0.33231857 -0.96257776
-1.0842513 0.20428087 -0.027906368 0.15633076 0.20380448 0.21721373 0.21883737 -0.89024526
-0.20559022 0.19432135 0.24436206 0.18194124 -0.9822283 -0.9884979 -0.894728 0.20531338
-0.79810995 -0.49346104 0.13673735 0.26147988 -0.9556745 -1.0044026 -0.8653074 0.4010987
-0.032968048 0.017811893 0.031169828 -0.008213374 0.032603264 -0.14167215 0.047237612 -0.13750276
-0.045532893 0.18321373 0.065808244 0.05444981 0.051553316 -0.0065925154 -0.045384765 0.11699751
0.038011968 -0.023680909 0.020247076 0.06708081 0.039291862 -0.02086916 -0.10720607 0.056875996
-0.0036972053 -0.054222446 0.08382029 -0.011265792 0.03155252 -0.06655388 0.079647616 0.050931506
0.0023193778 -0.074287005 -0.050689753 -0.087915465 0.04331111 -0.044342343 0.018734667 0.086034894
0.122611545 0.007150166 0.04849014 -0.04466795 -0.17683041 -0.052085713 -0.034408387 -0.024837032
0.119852945 -0.09396575 -0.0476581 -0.06937393 -0.073905565 0.03394849 0.06927357 -0.11743362
0.077289365 0.030810248 0.057766076 -0.06394666 0.08927327 -0.055820104 -0.005906596 -0.14615425
-0.092776395 0.03051541 -0.047919225 -0.14706974 -0.12269477 -0.1766244 -0.120032445 -0.081312366
-0.02448661 0.1742153 -0.21598709 0.065981 -0.13575937 -0.017780595 0.075858 0.14199093
0.27786687 -0.10789234 -0.01483845 -0.19216153 0.07234379 -0.12675948 -0.11738841 -0.096013516
0.34955865 -0.19757359 -0.054461382 -0.06534675 -0.06635828 0.016377285 -0.042572685 0.056266125
-0.03734637 -0.027615849 -0.14743505 0.01910701 -0.15068193 0.032747008 0.10358454 0.02251241
-0.12874684 -0.0495226 -0.16496873 -0.03210963 -0.18984793 -0.03945684 -0.086015254 -0.007961081
-0.044341546 -0.009796354 -0.12038721 -0.048820786 -0.06315226 -0.15618432 0.046220694 -0.105031215
-0.04801384 0.07094154 -0.2132273 -0.23193948 0.05252168 -0.09377728 -0.09619305 0.015419057
00000000: f11b 343e a64f 833e 09e0 dc3d 76ef 6c3e
00000010: 594b 28bf 67e3 b13d 669e 613e c61e d03d
00000020: a3c5 3fbf aba1 e8bd 0509 343e a339 6ebf
00000030: 3094 0a3e ede7 1e3e 7113 4fbf 99c8 8b3d
00000040: 5116 573f 0801 7ebf 971b 85bf 2db4 69be
00000050: 2065 a13e b13d 60bf fe65 283e 37f0 70bf
00000060: 50cb b0be f533 5f3e a587 81bf 5a4d 543e
00000070: 7d78 f33d ab75 7abf bf0d 2e3e c3e5 50bf
00000080: 7054 80bf 6e1d 7c3e 3302 0a3e c3d8 803e
00000090: 29c2 aa3d aedc 74bf 0f1e af3e d266 88bf
000000a0: 37d0 61bf 1d8d 373e 1546 7e3c 33f4 703e
000000b0: d683 303e 0942 833e ce95 953d 3b9f 66bf
000000c0: bec6 b4bd 4246 af3d 90e0 3f3e 9998 2d3e
000000d0: 9423 71bf 6cf0 73bf a869 87bf 2a4c 1d3e
000000e0: adfa 5bbf 4e17 18bf 76c7 713d 4c61 0b3e
000000f0: b5cf 4ebf b986 5dbf 8245 51bf 76af e03e
00000100: c17e 8c3e e548 a33d 29c7 813e 6161 2d3e
00000110: b2bd 02bf e4f5 a03d d2fe f13d 9f73 083e
00000120: d516 4abf 1f82 ab3c 8cf2 413e b706 82bf
00000130: 468e 6f3e 7151 1c3d 8bee 79bf 2b15 d33d
00000140: 0952 473f 01d9 8ebf 4cfe 61bf 21b3 cdbc
00000150: 4152 8f3e ac4a 63bf e964 843d 33c2 6cbf
00000160: 5d84 9ebe c560 203d 8a14 83bf 9c1e 983e
00000170: 17f2 513e bd71 6ebf 5405 b83d cfbc 80bf
00000180: 5f7f 6ebf 401d 2e3e 327b 6e3e 40ee 883d
00000190: 9316 923e 48ba 3abf a925 aa3e 7f6b 76bf
000001a0: bfc8 8abf 012f 513e e59b e4bc 2c15 203e
000001b0: 1fb2 503e 476d 5e3e e716 603e 1de7 63bf
000001c0: 3e86 52be 2dfc 463e 0c3a 7a3e ce4e 3a3e
000001d0: 5073 7bbf 330e 7dbf e50c 65bf ac3d 523e
000001e0: ef50 4cbf eda6 fcbe e004 0c3e b1e0 853e
000001f0: 16a7 74bf 4490 80bf c984 5dbf cf5c cd3e
00000200: 8109 07bd 3fea 913c de57 ff3c 6391 06bc
00000210: 008b 053d 8112 11be 3a7c 413d 86cd 0cbe
00000220: b380 3abd 619c 3b3e 79c6 863d c406 5f3d
00000230: 9229 533d 0706 d8bb 60e5 39bd 649c ef3d
00000240: 70b2 1b3d 77fe c1bc 32dd a53c aa61 893d
00000250: 81f0 203d cdf5 aabc db8e dbbd cef6 683d
00000260: d04c 72bb 5b18 5ebd f9a9 ab3d 2894 38bc
00000270: 373d 013d 674d 88bd 4a1e a33d 8e9d 503d
00000280: b400 183b c923 98bd 0fa0 4fbd 060d b4bd
00000290: fe66 313d 51a0 35bd 7279 993c 1033 b03d
000002a0: c31b fb3d f14b ea3b 999d 463d bef5 36bd
000002b0: 0813 35be d457 55bd cfef 0cbd 0877 cbbc
000002c0: 7675 f53d 1d71 c0bd 2435 43bd eb13 8ebd
000002d0: cd5b 97bd 920d 0b3d 4ddf 8d3d 0a81 f0bd
000002e0: e349 9e3d c665 fc3c 1f9c 6c3d 77f6 82bd
000002f0: e7d4 b63d 9fa3 64bd 1e8c c1bb 76a9 15be
00000300: 8d01 bebd 74fb f93c f346 44bd 7399 16be
00000310: 6547 fbbd 07dd 34be 92d3 f5bd 1987 a6bd
00000320: 2598 c8bc 7f65 323e b82b 5dbe 0c21 873d
00000330: 8104 0bbe 9ca8 91bc 705b 9b3d 1266 113e
00000340: 9144 8e3e a9f6 dcbd f81c 73bc fec5 44be
00000350: fb28 943d 3dcd 01be 5669 f0bd bca2 c4bd
00000360: 5af9 b23e bb50 4abe e612 5fbd 84d4 85bd
00000370: dae6 87bd a829 863c b260 2ebd 4f77 663d
00000380: 82f8 18bd a23a e2bc 37f9 16be 4e86 9c3c
00000390: 5d4c 1abe ba21 063d 2224 d43d f26b b83c
000003a0: 36d6 03be 36d8 4abd 90ed 28be 6385 03bd
000003b0: 7f67 42be 7f9d 21bd c428 b0bd 326f 02bc
000003c0: 7b9f 35bd e380 20bc 928d f6bd 4ef8 47bd
000003d0: f955 81bd c8ee 1fbe e951 3d3d 9b1a d7bd
000003e0: 29aa 44bd cc49 913d 4258 5abe 8b81 6dbe
000003f0: f920 573d 4d0e c0bd dd00 c5bd 36a0 7c3c

bias f4 [32]
0.42740566 0.44554657 -0.05255364 -0.042087328 0.005368275 0.0987217 0.053479 0.28478524
0.31305665 0.4332572 0.06228399 0.26826435 -0.050497536 0.06946616 0.3640969 -0.12219814
0.0026838973 0.41746354 0.17895526 0.4063729 0.4290451 0.12143027 -0.13751113 -0.080826014
0.36700603 0.37676376 0.066042416 -0.047626894 0.43144166 0.30793607 -0.12631898 0.39841652
00000000: ead4 da3e ae1e e43e 7c42 57bd c363 2cbd
00000010: 5be8 af3b 9a2e ca3d cc0c 5b3d 5fcf 913e
00000020: f648 a03e e3d3 dd3e 7f1d 7f3d f259 893e
00000030: 81d6 4ebd 4644 8e3d e96a ba3e 0543 fabd
00000040: 53e4 2f3b c8bd d53e 0c40 373e 1c10 d03e
00000050: cdab db3e 6fb0 f83d b8cf 0cbe 1c88 a5bd
00000060: 37e8 bb3e 2ee7 c03e 3f41 873d 6b14 43bd
00000070: ece5 dc3e cca9 9d3e c359 01be 40fd cb3e

weight f4 [1, 32]
-0.49972448 -0.48180807 0.0006390395 0.0067246906 0.005216054 0.11037757 0.04365134 -0.47502732
-0.53606695 -0.4990583 0.11466407 -0.49434245 0.0028350593 0.0158706 -0.5550559 0.12141194
0.022014925 -0.44188833 -0.50614893 -0.4319514 -0.54783005 0.015571008 0.11356674 -0.13305095
-0.573488 -0.564791 0.028609173 0.14998966 -0.5875752 -0.50435925 -0.035597652 -0.5458819
00000000: e3db ffbe 8caf f6be 3785 273a cb5a dc3b
00000010: 6feb aa3b a30d e23d bfcb 323d c836 f3be
00000020: af3b 09bf 9284 ffbe ffd4 ea3d 741a fdbe
00000030: 67cc 393b 0f03 823c 2518 0ebf d3a6 f83d
00000040: a558 b43c 303f e2be fa92 01bf bc28 ddbe
00000050: 973e 0cbf 8b1d 7f3c ae95 e83d 823e 08be
00000060: 1cd0 12bf 2596 10bf c95d ea3c e496 193e
00000070: 546b 16bf b01d 01bf d8ce 11bd ebbe 0bbf
