task_1a_trained_model.pth (torch, 38384 bytes, 7 tensors)

weight f4 [64, 9]
000000 2c e2 1a 3e e6 de c6 3c 8e 6e 17 be 45 af 4a be
       0.1512534 0.024276208 -0.14788267 -0.19793423
000010 64 8b 65 3e a0 ca 20 3e 0e ce 17 3d 41 0e c7 3d
       0.22416455 0.15702295 0.037061743 0.097195156
000020 af c4 a4 3e af 4f ce 3c 11 02 56 3d 23 1f 9a be
       0.32181308 0.02518448 0.052248064 -0.3010188
000030 5e be 88 be b6 f2 87 be 74 cd 83 be eb 82 df 3b
       -0.2670774 -0.2655236 -0.25742686 0.0068210266
000040 f9 b7 be bd 4f be 9c be 85 f8 2f 3c cc 11 2b be
       -0.09312434 -0.30613944 0.010740404 -0.16706008
000050 da 62 a4 be 7f d3 9c be 46 f5 3c 3e 6a 84 28 3e
       -0.32106668 -0.3063011 0.1845294 0.16456762
000060 96 37 49 bc d6 42 a6 3e 01 01 39 be 83 25 bd be
       -0.012281319 0.32472867 -0.18066789 -0.36942682
000070 ed 52 ae be 90 e4 52 3e a1 bc 1a 3e 4a da 6b 3d
       -0.34047642 0.20595002 0.15111019 0.057581224
000080 b6 a4 60 3d 1d 25 18 3e 44 77 c9 3e 41 5f 45 3e
       0.05484458 0.14857908 0.39348805 0.19274618
000090 79 37 6e 3e 9c 8d 1b be 6c b3 0e 3e 61 b5 d7 bd
       0.23263349 -0.15190738 0.13935632 -0.10532642
0000a0 2b ca 09 3d 6d ec b8 3d 03 d6 2f be 04 9b 85 3e
       0.033640068 0.0902947 -0.17171483 0.2609483
0000b0 b4 6a 5b 3e 12 81 dd 3c 50 b4 c0 3c 10 66 b4 3e
       0.21427423 0.027039085 0.02352348 0.35234118
0000c0 23 2a d7 bd d5 12 a1 3e 50 58 ab 3d 7a 3a f1 3d
       -0.10506084 0.3145968 0.08366454 0.11778732
0000d0 62 36 10 be ce eb 6c 3e a6 f6 a8 3e a5 a4 6a bb
       -0.14083245 0.23136827 0.33000678 -0.0035803702
0000e0 6a d3 0b 3e 4d 7a e1 bd 55 91 4a 3e bc e2 39 3e
       0.13654867 -0.11009655 0.19782002 0.18152899
0000f0 63 04 15 bd b8 7e 66 3e 18 df a6 bd 30 d8 66 3e
       -0.036381137 0.22509277 -0.081480205 0.22543406
000100 ff fb e5 3d 34 11 ce bd bf 49 a6 3d e5 98 c0 3d
       0.11229705 -0.10061875 0.08119535 0.09404162
000110 fe 14 0b bd fd d2 c8 3e 65 26 c0 be 09 67 72 3e
       -0.033955567 0.3922347 -0.37529293 0.23672117
000120 31 c5 6a 3e d1 24 c7 3e 23 36 ce 3a 44 5c 17 3e
       0.22926785 0.38895276 0.0015732687 0.1478129
000130 25 31 f9 3c 9a 6c 1a 3e bf 0d 6b 3e ed 4a 9b 3c
       0.030418942 0.1508049 0.22954462 0.018956626
000140 20 0b 3c bc 0c ad 4c bd d0 bf 9f 3e 5f 01 a3 be
       -0.011477262 -0.049969718 0.3120103 -0.31836984
000150 06 0f 0a 3c 01 a3 40 3e e3 99 25 bc 79 8d 2f 3d
       0.008426433 0.18812181 -0.01010749 0.04285953
000160 9a cf 6a be 42 6b 6f be 23 41 7c be 4c 63 8f be
       -0.22930756 -0.2338076 -0.24634223 -0.28005445
000170 55 0e 8a 3e b9 8d 2c 3e b7 27 90 3e 9a dd ee 3d
       0.2696406 0.16850938 0.281553 0.11663361
000180 a9 f7 ba be d1 f2 4e be e1 b2 8e 3c b9 eb 94 3e
       -0.36517075 -0.20209815 0.01741928 0.29086092
000190 43 38 68 3d 12 9e 63 3e 7e 87 96 bd 97 4b 62 3e
       0.05669428 0.22228268 -0.07350062 0.22099148
0001a0 02 96 78 3e 8d 85 92 bd 37 dc 60 be 38 ba 39 3d
       0.24275973 -0.07154379 -0.21959005 0.045343608
0001b0 0b c1 17 3d d0 10 79 bc 2a b3 a4 3e 43 e9 6d 3e
       0.037049334 -0.015201762 0.3216794 0.23233514
0001c0 a9 1b e0 bd f2 1e 21 3e 6a 56 a8 bd 3f 98 87 3e
       -0.10942776 0.15734461 -0.08219607 0.26483342
0001d0 dc 84 95 be e5 3f 50 be 05 ee 03 3e 16 46 f0 3c
       -0.29202926 -0.20336874 0.12883766 0.029330295
0001e0 f4 fa fe bd bc 09 50 be bb 1a f9 3c 1c 1b a6 be
       -0.12450209 -0.20316213 0.030408254 -0.32442558
0001f0 47 9a 8b bd c0 15 4d 3e 45 82 04 be b8 23 54 3d
       -0.068165354 0.20027828 -0.12940319 0.051791877
000200 7b 79 15 3e 31 a1 d1 bd 68 d9 53 be 94 03 10 bd
       0.14597122 -0.10235823 -0.20688403 -0.035159662
000210 eb 0c 64 3e 54 90 1d 3e 4e 20 74 be 0c 83 8a 3d
       0.22270553 0.15387088 -0.23840448 0.067632765
000220 c4 82 01 be 7b 92 54 be 15 95 5a be b9 7f 45 3e
       -0.1264754 -0.20759003 -0.21345933 0.19287004
000230 05 ab 93 be 69 56 06 3e b0 f8 b7 bd 8c 1f 3b 3e
       -0.28841415 0.131189 -0.0898298 0.18273753
000240 1d 33 71 be 72 99 38 bd 87 ce 91 3e f6 e8 93 3d
       -0.23554654 -0.04506821 0.2847788 0.07222168
000250 34 d9 9a be da 90 e6 bd 66 d8 88 3e ae 8c 08 be
       -0.30243838 -0.11258097 0.267276 -0.13334915
000260 28 59 40 3d 95 b5 a8 be fa c8 79 3c ad 78 7c bc
       0.046960026 -0.32951036 0.01524567 -0.015409631
000270 65 ce 29 be 61 f4 74 be 15 51 8b be 27 6d 7a be
       -0.1658264 -0.23921348 -0.27210298 -0.24455701
000280 98 02 c1 3d 1c db 34 be 13 b9 a3 bd 83 66 1c be
       0.09424323 -0.17661709 -0.079942845 -0.1527348
000290 6c e4 a7 3e cb 05 75 be 9a 07 85 3e 30 fc 99 be
       0.3279146 -0.23927991 0.25982362 -0.30075216
0002a0 a3 08 17 bd a7 e9 66 3d e6 b5 f5 3d 17 f1 73 be
       -0.03687347 0.056375172 0.11997585 -0.23822437
0002b0 0f 87 b5 bd be 3f 4d be 76 4f 1c 3e ea 59 18 3e
       -0.08863651 -0.20043847 0.15264687 0.1487805
0002c0 36 2e 85 3d 4f d0 08 bd d2 2d 91 3e 40 e4 9e be
       0.06502955 -0.033401784 0.2835527 -0.31033516
0002d0 eb ed 4a be cc 04 69 be ff ae c9 bd e4 d9 02 3e
       -0.19817321 -0.22755736 -0.09847831 0.12778431
0002e0 8a 0c 5a bc 1c 36 48 3d fb 75 21 3e b2 5f cc 3e
       -0.013308654 0.048879728 0.15767662 0.3991676
0002f0 68 42 8d be c6 67 f6 3c 26 9c f0 3c ab 3b 44 bd
       -0.27589726 0.03007878 0.029371332 -0.047908466
000300 c9 e2 67 3d d8 ac 6e 3e 93 ee d8 bb fc 67 9b 3d
       0.056612764 0.23308122 -0.006620237 0.07588193
000310 cc ff 8d be fb 36 88 3e bc 31 75 3e 1a 0c 87 bc
       -0.2773422 0.26604447 0.23944753 -0.016485263
000320 02 c8 78 3e 68 88 32 3e 30 15 0d bd 87 a5 88 bd
       0.24295047 0.17434847 -0.034444034 -0.06672197
000330 9e 87 25 3e 5c 44 96 be d1 c4 3f be ee 31 59 bd
       0.16165015 -0.2934903 -0.18727423 -0.053026132
000340 16 b1 0a 3e 45 cf aa 3b 24 69 66 3c 3b ed 18 3c
       0.13544115 0.0052126967 0.014063153 0.009333904
000350 7f 31 b9 3d 7d ae 50 be 2a cc 5c be cb 28 94 be
       0.09042644 -0.20379062 -0.21562257 -0.28937373
000360 71 a1 58 be a1 b7 0a be e6 5a f6 3d 07 29 1c be
       -0.21155335 -0.13546611 0.12029056 -0.15250026
000370 23 74 9e bd 69 d2 6f 3e ee 32 b9 be 8e e7 fb bd
       -0.07736995 0.23420109 -0.3617167 -0.12300025
000380 c5 5b f8 bd f8 07 a1 bd 65 84 4d 3e 79 97 3f be
       -0.12126879 -0.07862848 0.20070036 -0.18710126
000390 f4 cd 4c be ee 73 1a 3c a5 67 8b be 3c 0a dd 3c
       -0.2000044 0.009427054 -0.27227512 0.02698242
0003a0 73 d4 21 be 33 eb 40 3e 18 25 95 be f6 39 2c bd
       -0.15803699 0.18839721 -0.29129863 -0.042047463
0003b0 a3 f2 cf 3d da 14 6d 3e aa 8d af bd 2b 24 f4 3d
       0.10153701 0.23152485 -0.08571942 0.11920961
0003c0 03 8d 32 be 4a e4 30 be 2a 79 58 be bf 84 8c be
       -0.17436604 -0.17274585 -0.2113997 -0.27445027
0003d0 ed 78 58 be de 33 10 be 76 34 bf 3d 83 82 46 3e
       -0.2113988 -0.14082286 0.09336178 0.19385724
0003e0 bb a5 6f be 09 f9 be 3c d2 f0 1d be 2e 5a ba 3d
       -0.23403065 0.023312109 -0.15423897 0.09099232
0003f0 91 f1 83 3e a9 8a 18 3c 74 56 af be e4 dd ac be
       0.25770238 0.009310403 -0.34245646 -0.3376304

bias f4 [64]
000000 c1 6a 8e 3c 05 dc 7d be 2a 33 d2 bd c3 91 11 ba
       0.017384889 -0.24790962 -0.10263665 -0.0005553031
000010 e6 ab 35 be bd 9e 18 3e 50 22 f2 3d ad b9 a9 3e
       -0.17741355 0.14904304 0.11822951 0.33149472
000020 cc c5 9d be 4e c2 a8 be 35 47 df 3d 72 ea a8 be
       -0.3081497 -0.32960743 0.109022535 -0.32991368
000030 2d 63 9e 3e 82 1e 6c 3d 4d 10 1e 3c ab c6 f9 bd
       0.3093504 0.057646282 0.009647441 -0.12196096
000040 45 30 93 3c a3 ed 84 bd a8 03 29 be 3f c2 60 bd
       0.017967353 -0.06490638 -0.16505301 -0.054872748
000050 63 e9 e9 3d 2a 25 40 3e f0 df 07 3e a2 22 08 3d
       0.11421468 0.18764177 0.13269019 0.033236153
000060 84 e9 e8 bd b4 a2 9f be 8d a9 87 3d c0 82 f6 bd
       -0.113726646 -0.3117882 0.06624136 -0.12036657
000070 c1 6b a1 3d e9 e8 97 be 1f 9c 1b 3e 85 71 1f be
       0.078818806 -0.29669884 0.15196274 -0.15570648
000080 05 49 7f 3e d8 e3 56 be 35 c8 04 3e c2 1c 4b be
       0.24930198 -0.20985353 0.12966998 -0.19835189
000090 c9 8e 98 bc fa 70 2d bd c4 13 b3 bd e4 9d bc 3d
       -0.018622773 -0.04234407 -0.08744004 0.09209803
0000a0 2b 27 35 be e1 43 5c 3e 7a ab 91 be e1 91 cd 3d
       -0.17690723 0.21510269 -0.2845114 0.1003759
0000b0 ce 74 1d 3e 9d 88 db 3d a3 a9 25 3e 62 86 5d be
       0.15376589 0.10719416 0.16177993 -0.21633294
0000c0 ea 3b 85 3c 6d 19 04 be 73 76 a3 be e3 a5 4e bc
       0.01626392 -0.12900324 -0.31926307 -0.012612793
0000d0 2e e5 47 3d 34 d9 ba 3d 23 d1 55 be f3 de 0a 3e
       0.048802547 0.091234595 -0.2088056 0.13561611
0000e0 a3 3b 5f 3d 9e 40 a2 be d0 00 a5 3e 55 27 19 be
       0.054500233 -0.31689924 0.32227182 -0.1495641
0000f0 4a 93 90 be b6 6e 8f be 4c b3 2a bb 7f fb 09 be
       -0.28237373 -0.28014153 -0.002604681 -0.13474844

weight f4 [64, 64]
000000 03 13 2f bc fc a0 fc 3b 1c 98 c5 3d 92 ef a0 3d
       -0.010685685 0.0077096205 0.09648153 0.078581944
000010 14 bc ac 3d fd d9 fe 3b 26 75 d6 bd a3 9b 16 be
       0.084343106 0.007777451 -0.10471563 -0.14707808
000020 7f 43 d5 bc e9 ca cd 3d b4 25 ab bc 59 d2 be bd
       -0.026033161 0.10048468 -0.020892002 -0.093174644
000030 63 c9 b3 3d 26 bb f6 bd d7 d0 01 3e 7d 67 92 bd
       0.08778646 -0.120474145 0.12677322 -0.07148645
000040 50 96 ac 3d 8f 4e b3 3c ec 24 74 bd 60 c6 af 3d
       0.08427107 0.021888046 -0.059605524 0.08582759
000050 40 1c 95 3d 41 57 e7 bc 48 e5 98 bd 99 f2 d7 3c
       0.07280779 -0.028239848 -0.07465607 0.026360797
000060 21 1b 86 3d 33 b7 b1 bc c7 54 ee bd 7f 4f 0d bd
       0.06548143 -0.021693802 -0.11637264 -0.03449964
000070 88 77 26 ba 08 a1 e3 bd b3 9e 05 3e 0f c4 40 bd
       -0.0006350209 -0.11114699 0.1304882 -0.047061976
000080 1a e3 f9 bd 4f da 89 bd 23 90 65 3c 9b c1 e1 3b
       -0.12201519 -0.06731092 0.014011416 0.0068895346
000090 a6 49 ea 3d 7c 33 cf bd 7c d2 f3 3d de 00 bc 3d
       0.114398286 -0.10117242 0.11905381 0.09179853
0000a0 2c 54 38 bd 98 51 db bd b9 8e 91 3d cc e5 f5 3d
       -0.045002148 -0.10708922 0.071073 0.12006721
0000b0 f5 43 8e 3d c0 6e a2 3d d3 ad 2f 3d c1 9c f3 3d
       0.069465555 0.0793128 0.04289038 0.11895133
0000c0 67 9f 95 3c 02 2e dd bd 37 3b fc bd 6b 87 48 3d
       0.018264486 -0.10799791 -0.12315982 0.04895727
0000d0 2e 25 dc 3d 8e ca 63 3d 15 a8 eb bd 75 b1 70 bd
       0.10749279 0.055613093 -0.115066685 -0.058762986
0000e0 5e 2b d9 3d 45 6a b5 3c 90 c6 1a 3c 3c 90 c3 bd
       0.10603975 0.0221454 0.009446755 -0.09548995
0000f0 5a ac f1 bd de 61 80 3d 36 8a dd bd 2f b3 cc bd
       -0.118004516 0.06268667 -0.10817377 -0.09995114
000100 8d 4d b0 3b cb 18 b1 3c 54 e9 27 3d 1a a1 f8 bc
       0.0053803385 0.021618268 0.040994003 -0.030350257
000110 77 6e 41 3d bc e7 d8 3d e6 8b e5 bd 7d 17 a3 bc
       0.047224488 0.10591075 -0.11208324 -0.019908661
000120 52 f5 7d bd 3b 12 e1 bd 71 e8 af 3d 50 c3 5a bd
       -0.062001534 -0.10989805 0.085892566 -0.05340892
000130 b0 8f 07 3c 45 36 21 bd 0a 01 53 3d 11 ca cd bd
       0.008274004 -0.039358396 0.051514663 -0.10048307
000140 09 75 ce 3c ab 47 50 3d 94 62 0b 3e e1 00 ac 3d
       0.025202291 0.050849598 0.13611823 0.08398605
000150 72 73 ac bd ed 3d f5 3c fa 35 8a bd 6b 45 90 bd
       -0.08420457 0.029936755 -0.067485765 -0.070444904
000160 01 c5 93 3d 7a 7e 44 bd 85 ce 58 3c 3c bd a4 3d
       0.0721531 -0.04797218 0.013232832 0.08043906
000170 d9 df f3 3d b9 ce fb bd 58 34 99 bd b8 71 9e bd
       0.1190793 -0.122952886 -0.07480687 -0.07736534
000180 18 89 60 bd 7c 9f ea 3d 4e 46 40 bd c8 01 81 bd
       -0.054818243 0.114562005 -0.046942048 -0.06299168
000190 ac 35 cf bc 65 91 93 3d 3e 94 11 3d 38 94 98 bb
       -0.025294147 0.07205466 0.035541765 -0.004656341
0001a0 7b c7 72 3d 4b 8b a9 3d 25 77 ab bd c7 5b 37 ba
       0.05927227 0.08278521 -0.083723344 -0.0006994572
0001b0 ed 0f 60 3d 7e 38 e8 3d c8 84 b4 bd 67 f5 38 3d
       0.054702688 0.113389 -0.088143885 0.04515591
0001c0 af dc dc bd f1 ff 4f bd b1 ba ab 3c 80 fe bc bd
       -0.107842796 -0.050781194 0.020963045 -0.092282295
0001d0 8b 26 0d 3d a6 ce 6f bd d2 0d 7a 3d 6d f5 eb bc
       0.034460586 -0.058546685 0.061048336 -0.028803552
0001e0 44 35 a2 bc ad 63 07 bd 6a 86 6c 3d 94 01 23 bd
       -0.01980079 -0.033054043 0.057745375 -0.039796427
0001f0 5c e8 5c bc 41 70 3d bc 5c 13 95 bd 16 ec cb bd
       -0.013483133 -0.011562408 -0.07279083 -0.09957139
000200 ae 8d 97 bd ee d9 d2 3d 9b 88 bb bd e6 85 95 bd
       -0.0740007 0.10295473 -0.09156915 -0.0730093
000210 b8 02 fc bd 46 f9 ac bc d3 06 b8 bd 0d aa 9b bd
       -0.12305206 -0.021114957 -0.089856766 -0.07600794
000220 f7 f8 b3 bc 13 9d 32 3c e9 a5 f5 3c 63 7b e0 3d
       -0.021969302 0.010901707 0.029986339 0.10961034
000230 eb 93 66 bd ec 2c 76 bd 9f 0d 50 bd f4 42 6c bd
       -0.05629341 -0.060101435 -0.05079424 -0.05768104
000240 dc 07 6b bd f9 91 b5 bd 63 b7 8b 3d 66 a4 f6 ba
       -0.057380542 -0.08865733 0.068220876 -0.0018817305
000250 5f 37 aa 3d ab 47 76 bd f6 c2 dc 3d ee a1 87 bc
       0.083113424 -0.06012694 0.10779373 -0.016556706
000260 64 4f 1b 3d ea 45 ff bd f0 85 93 3d 44 80 e2 3d
       0.03791751 -0.12464507 0.07203281 0.11059621
000270 5d c5 fa 3d ad a4 7d 3d 38 08 88 bd df ce ce 3d
       0.12244675 0.061924625 -0.066421926 0.10098051
000280 9a 2a 96 3b b8 61 e8 3d ca d3 64 3c a2 61 a8 bd
       0.004582715 0.11346763 0.01396651 -0.08221747
000290 ae ed 9d 3d 24 36 07 bc ce 16 a1 3d f5 95 f9 bd
       0.077113494 -0.008252654 0.07865678 -0.12186805
0002a0 95 ce 1d bd 99 d2 5d bd 66 c8 82 3d 76 e3 b4 3d
       -0.03852709 -0.05415592 0.06385879 0.08832447
0002b0 37 72 ef 3d 56 9c a8 3d 58 43 e0 bd ef 4c 86 3c
       0.11691707 0.08232944 -0.10950345 0.016394107
0002c0 be 07 e3 bd 66 2e 6a bd aa ba 27 3d e5 75 b3 3d
       -0.11085461 -0.057173155 0.0409495 0.08762721
0002d0 08 c3 3b 3c c0 8a ce 3d e5 f9 b4 3d 47 10 07 3d
       0.011460073 0.10085058 0.08836726 0.032974508
0002e0 b8 17 30 3d 84 f9 6a bd ba e3 a8 3d a5 41 90 3d
       0.04299137 -0.057366863 0.082465604 0.07043771
0002f0 1e 7a 60 bc 45 98 5b 3c ea d6 c8 3d 73 96 fb bd
       -0.01370099 0.013403003 0.098066166 -0.12284555
000300 91 54 2e bd 32 ba 07 3e e4 08 2e 3d 94 5c 92 bc
       -0.042561118 0.13254622 0.042488948 -0.01786641
000310 a6 ce 3a 3d 1f 64 94 3d 9c 02 db 3d 92 13 cd bc
       0.04560723 0.07245659 0.10693857 -0.025033746
000320 fb 52 cd bd 8c f2 b0 bc 28 1f 6c 3d bd c0 17 bd
       -0.10025593 -0.02160003 0.0576469 -0.037049044
000330 02 c3 ac bd bb 01 8d bd f2 1a 54 bd ac 28 ae 3c
       -0.08435632 -0.06885096 -0.05178351 0.021259628
000340 23 7e d7 3d 65 81 82 3d 2e 6c d0 3c 8f 15 c6 3d
       0.105221055 0.06372336 0.02544221 0.09672081
000350 73 41 58 bd 22 3a 83 bc 3e c2 2a 3d 0e 66 7a 3d
       -0.052796792 -0.01601893 0.04168915 0.061132483
000360 20 60 38 bd 21 60 7b bd b8 78 00 be f6 e1 da 3d
       -0.045013547 -0.061370973 -0.1254605 0.1068763
000370 2b ff 0f 3e 8b 75 33 3d ea 67 ca 3d 2b d1 8d bd
       0.14062183 0.04381327 0.09883101 -0.06924661
000380 ed cb e3 3d 9f 9c b3 bd 65 49 ff bc 62 e7 bb 3d
       0.1112288 -0.087701075 -0.031162927 0.09174992
000390 7b cc f4 bd 44 3d bd bb ee 15 26 bd 10 bc 0f 3e
       -0.11953064 -0.0057751257 -0.040548258 0.14036584
0003a0 83 e9 f6 bd 96 7a b6 3d 7f 63 e8 3d 04 c3 72 bd
       -0.120562576 0.089101 0.113471024 -0.059268013
0003b0 71 8a b7 3d 98 f8 a3 bb da de c3 bd 7e ff ae 3c
       0.089619525 -0.005004 -0.0956399 0.021362063
0003c0 9b 89 05 bc 2f d8 78 bd 61 ec 19 3d 6f a9 49 bd
       -0.0081504835 -0.060753044 0.037578944 -0.04923385
0003d0 7a 2c b7 3d fe 99 c1 bd 31 7a 64 3d 75 b3 bc 3d
       0.0894403 -0.094532 0.055780593 0.09213916
0003e0 fa be b9 3b 67 60 e8 3d 94 97 ce bd 9e 5d 80 bc
       0.005668518 0.11346512 -0.10087505 -0.01566964
0003f0 65 a7 12 bd 55 3c ef bd b6 e5 12 bd f6 b3 e2 bc
       -0.03580417 -0.11681429 -0.0358636 -0.027673703

bias f4 [64]
000000 ec cc be bc 51 05 20 3d b6 c7 8d 3d 1e 58 03 be
       -0.023291074 0.03906757 0.069228575 -0.12826583
000010 f5 42 a6 3d db 30 b8 3d a0 ab e4 3d 45 b3 4a bc
       0.0811824 0.089936934 0.11165547 -0.012371843
000020 76 ac 8e bd a3 ef 92 3d 92 74 9d bc 65 d8 c9 3c
       -0.06966488 0.07174613 -0.019220624 0.024639318
000030 13 a2 38 3c 50 73 bc bc 9b 02 d8 3d 0b cb 3a 3e
       0.01126911 -0.023004204 0.10547372 0.18241517
000040 73 ee bc bb 8b f2 31 3d 4a bc 38 bb 8e c4 f9 3c
       -0.00576573 0.043444198 -0.00281884 0.030489232
000050 53 e5 cc 3d 47 72 0d 3d de dd e6 3b c0 eb e8 bd
       0.100046776 0.03453281 0.0070454916 -0.11373091
000060 6a be 3c bd 60 f6 62 bc 50 3f 62 bd 27 85 c4 3d
       -0.04608003 -0.013852686 -0.05523616 0.09595709
000070 d6 87 59 bd 79 81 d5 3d 53 4b 28 3d 9f 6e 6b 3d
       -0.05310806 0.104250856 0.04108746 0.057478543
000080 86 09 5d 3c ad 3e c5 3d 63 7d 6b 3d b3 c7 e2 3c
       0.01349104 0.09631095 0.057492625 0.027683115
000090 9a 22 5a bd c8 cb 1f bd e2 bf f4 3c 24 07 b6 3d
       -0.053255655 -0.0390127 0.029876653 0.08888081
0000a0 0d a7 38 3d 0b 2d b9 3d ac cd 31 3d 65 7e 45 bd
       0.045081187 0.090417944 0.043409035 -0.048216242
0000b0 7e 92 38 bd 05 59 fc bd 10 cf 12 3e 52 0f eb bd
       -0.04506158 -0.12321667 0.143368 -0.114775315
0000c0 70 4d 91 3b d3 a3 d6 3d 4e 44 f6 bd d2 ea 3c bd
       0.00443428 0.10480466 -0.12024747 -0.04612238
0000d0 c3 3a 0a 3e 5c 18 81 3d 35 71 25 bd 12 2b b1 3d
       0.13498978 0.06303474 -0.040391166 0.08650793
0000e0 c8 d2 dd bd 6f c1 ef bd 9a e1 97 bd e3 7d ef 3d
       -0.10831219 -0.117068164 -0.07416077 0.11693933
0000f0 f2 fa d4 bd dd 53 ed 3d de 8f 06 be 30 1c 44 bd
       -0.103994265 0.11588261 -0.13140818 -0.047878444

weight f4 [32, 64]
000000 da f9 c5 3d e7 48 ba bd 54 74 8c bd 12 dd eb 3d
       0.09666796 -0.09095936 -0.06858125 0.11516775
000010 87 57 b5 3d e5 ba 9f bd 43 29 ea bd 22 c2 cb bd
       0.08854585 -0.07799319 -0.11433651 -0.09949137
000020 d8 61 13 3d bc 8a 8a 3d 7c 4a 2f 3d 5b f8 8a bd
       0.035981983 0.06764743 0.042795643 -0.06785651
000030 d6 69 6d bd c5 7d b2 bd c1 cb c3 bd a1 68 bb 3d
       -0.05796226 -0.08715395 -0.09560347 0.09150816
000040 ee 9d aa bd 5b 34 56 bc cb 9d 44 3d 3c ba da 3d
       -0.08330904 -0.013074006 0.048002046 0.10680053
000050 e9 be 56 3d 82 1f 8d 3d ab e0 ab 3d cb 59 37 bd
       0.05242816 0.06890775 0.083924614 -0.044763368
000060 76 c1 fd bd 4c f4 da 3d 3e d9 eb 3d fd 48 ad bd
       -0.12390415 0.10691127 0.11516045 -0.08461187
000070 95 13 58 3c 4b e2 07 3d bc 04 86 3d 91 e1 5a 3d
       0.0131882625 0.033174794 0.06543872 0.053437773
000080 54 2e bb bc f8 53 c7 3d bb 57 4f 3d 5c a7 f8 bc
       -0.02284924 0.09732813 0.050620776 -0.03035324
000090 15 1a 99 bb 4b e0 f8 3d 21 93 55 3d 21 3f 15 3d
       -0.0046722987 0.121521555 0.052142266 0.036437158
0000a0 b1 41 59 ba f4 1f b6 3d 14 32 f5 bd 36 06 7f bd
       -0.0008287682 0.08892813 -0.11972442 -0.062261783
0000b0 89 55 c2 bd 0d b2 bd 3d ca e8 ef bd bf 99 8c 3d
       -0.09488971 0.09262476 -0.11714323 0.06865262
0000c0 4f 75 38 3d b3 d4 62 bd 5f 3a 77 3d 74 c4 d4 bd
       0.04503375 -0.055378627 0.0603584 -0.10389033
0000d0 c0 fb d6 bd b2 ed 96 bd 25 80 98 3c de 41 a9 3d
       -0.10497236 -0.073695555 0.018615792 0.08264516
0000e0 06 39 f5 3d e3 0d 8f bc aa 7e af 3d 6f c7 19 3d
       0.11973767 -0.017462676 0.08569081 0.03754371
0000f0 50 47 ed bd 64 8e 9e bd 02 b7 10 bd 8b 20 15 3d
       -0.115858674 -0.077420026 -0.03533078 0.03640799
000100 f2 ab 8c 3d 47 7e 8a 3c 7b 81 54 3c 1f a5 31 3d
       0.068687335 0.016905917 0.012970324 0.043370362
000110 41 d8 7b bd 58 30 f1 bd 19 d6 e0 3d 96 a9 96 bd
       -0.061485533 -0.11776799 0.10978336 -0.07356565
000120 b2 66 d0 bd 7b 39 cd bc 0e 77 f4 bc c5 76 ff 3d
       -0.101758376 -0.025051823 -0.029841926 0.12473825
000130 d6 36 00 be 37 61 c3 3b 56 87 3d bd 35 70 1a 3e
       -0.12520918 0.0059625166 -0.046271645 0.15081866
000140 20 b3 db 3d 55 b0 3b bc e0 8a fa bd 3a 4a d5 bd
       0.10727525 -0.011455615 -0.122335196 -0.10414548
000150 10 88 a1 bd d5 c6 a3 bd 93 52 46 3d 40 95 6d bd
       -0.0788728 -0.079969086 0.048418593 -0.058003664
000160 46 82 a3 bd db d2 bb bd f0 d7 e0 3d 57 ac 5d 3d
       -0.07983832 -0.09171077 0.10978687 0.054119434
000170 f0 98 d7 3d a3 87 90 bc 33 ed a1 3c 48 48 2f 3d
       0.105272174 -0.017642802 0.019766426 0.042793542
000180 2f fc f3 bc 97 94 aa bd 10 c2 8c bd d9 1a 80 3d
       -0.029783336 -0.083291225 -0.06872952 0.06255121
000190 b8 e3 cd bd a0 f7 20 bd cf 08 d2 bd 6e bc 09 3e
       -0.100531995 -0.039298654 -0.10255586 0.13450786
0001a0 62 3b 98 bd 1a ee b9 bd 9e 36 d1 bd fb 47 3a 3c
       -0.074332014 -0.090786174 -0.102154955 0.011369701
0001b0 1c 91 54 bd fd 5f 83 3d 90 c0 e8 3d 46 f7 a3 bd
       -0.0518962 0.06414793 0.113648534 -0.08006148
0001c0 09 9f f8 bd 36 8b 82 bd 7d cf b0 bd 8f f1 b9 3d
       -0.121397085 -0.06374209 -0.08633325 0.09079277
0001d0 56 c9 10 3e 4f 59 e5 3d 3c 5a da bd 21 3d d5 3d
       0.14139304 0.11198675 -0.10661742 0.1041205
0001e0 d8 e1 90 bd 3e 79 02 3c c3 30 44 3c 64 fb 07 bd
       -0.07074326 0.007963477 0.011974516 -0.03319873
0001f0 fe ce b4 3d 12 31 09 bd eb 38 d0 bc 18 da f6 3d
       0.08828543 -0.033494063 -0.025417766 0.12053317
000200 ac 01 b7 3d fa 60 f0 bc 61 0f 7b bd 7f d7 8d bd
       0.08935866 -0.029343117 -0.061293963 -0.06925868
000210 d7 3c e6 bd 9b 4b 25 bd d2 69 3c 3c 5a e5 61 3d
       -0.11242073 -0.040355306 0.011499839 0.055150367
000220 5e 9e 3b 3d e4 12 55 bd 48 30 d7 3d a9 f6 4b bc
       0.045805328 -0.05201997 0.10507256 -0.012448945
000230 4b c5 a5 3d ca f1 18 bd 06 76 ed 3a a6 eb 31 bc
       0.08094271 -0.037339963 0.0018116839 -0.010859406
000240 3b e5 59 3d 87 8c 74 3c 0d 96 77 3d 36 e2 35 bd
       0.053197127 0.014926082 0.060445834 -0.044405185
000250 27 95 9b 3c 53 ce 77 bd 03 06 b8 3c 4a cc ef 3d
       0.01899202 -0.0604995 0.022463804 0.11708887
000260 1d 1f c1 bd a5 56 f1 3d f1 8e 64 bd 18 04 9f bd
       -0.094297625 0.11784104 -0.055800382 -0.07764453
000270 5a 9d e6 3d 66 ee 11 bb 08 44 9d bd 22 de c1 bd
       0.11260481 -0.002226734 -0.076789916 -0.094661966
000280 be 69 bf 3d 6e ec 0d 3d 39 8f 26 bd 59 5d c2 3d
       0.093463406 0.034649305 -0.04066393 0.09490461
000290 03 35 b1 3d 6b 2f 07 be bd 57 0c 3c f8 96 ee 3d
       0.08652689 -0.13201682 0.00856584 0.11649889
0002a0 16 d8 4c bc db 85 c7 3d 9f 0f 7d bd 02 d1 ea 3d
       -0.012502691 0.09742328 -0.061782476 0.11465646
0002b0 aa 2d 2b bd a3 e4 ea 3d 7f ba 4c bd 8e 75 2a 3d
       -0.041791596 0.1146939 -0.049982544 0.041616015
0002c0 27 be 1c bd 8c cd a0 bd bd b4 7f 3c a0 d3 cd bc
       -0.03826728 -0.07851705 0.015607056 -0.025125325
0002d0 18 10 7e 3d a0 c1 86 bd 12 c9 69 3d 2d 40 19 bd
       0.062027067 -0.065799 0.05707652 -0.03741472
0002e0 83 9a 6c 3d 7a c8 fe bd 83 4f 8c 3d d8 ea 42 3d
       0.05776454 -0.124405816 0.06851103 0.047587246
0002f0 a0 84 36 bd 14 a9 cb 3d 6c 24 4f bd a0 3a 3e bd
       -0.044560075 0.099443585 -0.050571844 -0.046442628
000300 c8 3b b9 3d 44 f2 2d 3d e8 d7 c5 3d 59 88 38 bd
       0.090446055 0.04246737 0.096603215 -0.045051906
000310 1a e1 48 3d 6a cc d9 bd b5 3c 75 bb d2 e6 98 bd
       0.0490428 -0.10634692 -0.0037420217 -0.074659005
000320 94 a3 5e bd 9c ad 64 bd ea ab a1 bd 6d d8 02 bd
       -0.05435522 -0.05582963 -0.07894118 -0.03194468
000330 73 cc e3 3c 95 43 41 bd 0d 3a 66 bd d4 3d 88 3d
       0.02780745 -0.047183592 -0.056207705 0.06652418
000340 ca 29 50 3d 4c e4 3d bd 70 d9 b5 bd b8 f5 93 3d
       0.050821103 -0.0463603 -0.088793635 0.072246015
000350 b8 cf 8f 3c 72 59 39 bd 58 85 36 bd d0 69 13 bc
       0.017555103 -0.045251317 -0.04456076 -0.008997396
000360 a0 96 4d bd f4 61 87 bc 66 b5 ed bd 21 90 9d bd
       -0.050192475 -0.0165262 -0.11606865 -0.07693506
000370 08 fa cb bd 47 fa ba bd bd 2e 15 bd 3a fa ab bd
       -0.09959799 -0.09129768 -0.036421526 -0.08397336
000380 d0 65 8a 3d a2 4c cb bd f2 48 1e 3d 0e 15 40 bd
       0.067577004 -0.09926726 0.038643785 -0.04689508
000390 d0 2c 96 3d f8 18 ee 3d b0 4d 65 bd 9c e6 b9 bd
       0.07332766 0.11625856 -0.05598229 -0.090771884
0003a0 ec 6b 41 bd 23 f8 03 bc a4 4c 1f bd 0b 33 56 bd
       -0.047222063 -0.008054766 -0.03889145 -0.052294772
0003b0 bc fd 85 bd f0 07 95 3c 0e 3d e6 bd 5d 21 59 3c
       -0.065425366 0.018192261 -0.11242114 0.013252583
0003c0 a1 06 01 3d 06 07 bc bd 5c 1c b0 bd 62 18 9b bd
       0.031500462 -0.09181027 -0.08599159 -0.0757301
0003d0 9b 9a 82 bc 6c 54 24 3d 68 c7 eb 3d d4 ea eb bd
       -0.015942862 0.040119573 0.11512643 -0.11519399
0003e0 00 a5 40 3d 40 a6 e1 bc 3c ed 96 bd 54 66 23 bc
       0.047032356 -0.027545094 -0.073694676 -0.009973127
0003f0 00 86 6a 3d 46 a7 e5 bd c5 9d f4 bc 64 9a 10 3d
       0.0572567 -0.112135455 -0.029860387 0.03530349

bias f4 [32]
000000 12 87 bd bd e7 30 64 3d f4 2d a8 3b a1 f7 b4 bd
       -0.09254278 0.0557107 0.005132431 -0.08836294
000010 56 78 d3 3d c0 80 b9 3b 91 33 b8 3d c3 ee 7f bd
       0.10325687 0.0056611 0.089942105 -0.06248356
000020 0c cb 38 3d db 89 2d 3e 02 b9 60 3e 62 e1 dd 3a
       0.045115516 0.16947119 0.21945575 0.0016928131
000030 a1 89 1d bd d2 ef 17 3e d0 d8 2f 3b 43 a6 e7 bc
       -0.03846133 0.14837578 0.0026832111 -0.028277522
000040 6d 4c 75 3d ea c0 cb bc f4 e8 67 3d 2a 35 80 bd
       0.05988734 -0.024872262 0.056618646 -0.0626014
000050 da 2b 39 3c 55 fd 53 3d 82 65 91 bd e8 6f bf 3d
       0.011301959 0.051755268 -0.07099439 0.09347516
000060 5d 98 8d 3d 8a 37 94 3c 08 dd c7 3d 0f 39 99 bc
       0.069138266 0.01809289 0.09758955 -0.018703965
000070 bd e0 b7 bc 06 fd d0 3b c0 85 a7 bd c9 cd 0d 3d
       -0.02244603 0.006377819 -0.08179808 0.03462008

weight f4 [1, 32]
000000 75 9c 8d bd d1 fc 20 be 5b eb 12 be c1 a7 21 be
       -0.069146074 -0.15721442 -0.14347593 -0.1578665
000010 c9 3b 40 be 1e 59 22 3c 61 11 e1 3e 95 bb a1 3d
       -0.18772806 0.0099089425 0.43958572 0.078971066
000020 f3 54 6d 3d be 1f 93 be 70 74 06 bf f4 b3 c1 3d
       0.057942342 -0.28735155 -0.5252142 0.094581515
000030 ab d1 36 bd f2 02 5f be 35 b5 8f be 8c e6 42 3c
       -0.04463355 -0.21778467 -0.28067937 0.011895787
000040 dc b6 a7 3e c9 90 0f 3e 5a 31 09 3e 4e 3c d6 bc
       0.32756698 0.14020075 0.13397732 -0.026151802
000050 70 20 2b 3e 49 ab db bc 33 e8 04 be 85 e0 62 3e
       0.16711593 -0.026815074 -0.12979202 0.2215596
000060 14 c0 f1 3e 23 72 af 3e b7 aa 05 bf 1e ee 12 bd
       0.47216856 0.34266767 -0.52213615 -0.035871617
000070 79 0f 09 3e 5e 20 29 3e b1 61 32 3e b4 ec 09 3c
       0.13384809 0.16516253 0.17420079 0.008418251
