eyantra_tasks/Task_1A/task_1a_trained_model.pth (torch, 38128 bytes, 7 tensors)

weight f4 [64, 9]
00000000: 0b29 24be 6c64 98bd f666 573d 11d0 e4bd
00000010: 8d38 6c3e ff38 34be d9fe a3be 563c 12be
00000020: febc 933d 8fb1 9f3e 70b7 91be 031e f83d
00000030: 03cc 103e 9c15 933e 286a fdbd f4fd b3be
00000040: 0460 81bd b911 a1be a0c0 9ebe 2fbe b1be
00000050: ebdf 9d3e a98f bc3d 07cf 313e a12d a93e
00000060: d32b ab3e 4b2d ccbe 1ecd 853e d311 1d3d
00000070: e690 963e b6a6 703d 81cb 67be 1bef 20bd
00000080: f893 753e a2c1 f4bd 3a18 cb3e 94d4 7d3e
00000090: bc62 c43d f0dc b43c 08f5 2bbc 96c8 c7bc
000000a0: 6054 713e dd15 73be c8be 333e ffc4 6f3e
000000b0: ee41 6ebe 5831 4cbc a079 533d a970 06bf
000000c0: 3ca9 d13d fcec c63d 3c95 0fbe 441f 9b3b
000000d0: b6d3 ddbe 81ba 5ebe 2fd8 01be 5a41 e4be
000000e0: 1f56 4d3d 5148 d9bc 23e5 aa3e e086 2ebe
000000f0: 87d5 9f3e 5127 e3be 2665 18bd f457 66be
00000100: 45f7 293e 1c7c e6bd a715 ef3d 9776 613d
00000110: aa33 31be 3b2c 5e3d 60c7 103d f8cd 593e
00000120: 84d6 d3bd c3d2 2dbe 8374 ef3e f5ca cc3d
00000130: 516d 9ebe caad 6abe ff6f a9be d49a b7be
00000140: 2e97 f33d 57b6 a23d 7b73 babe 1be3 8ebe
00000150: 80cc b23e 074e a1ba e4d0 083e 2c39 8bbd
00000160: 33a9 88bd 2b46 063e 7bbb ccbe b8c3 a3be
00000170: 100c 09be afc3 7d3d d7f0 f4bc 8ac1 84be
00000180: f0a0 d63e 0167 41be 70f7 483e 0b8d 66be
00000190: 9701 383e 9ee1 dcbd 0794 5cbe 6a42 9f3e
000001a0: 5d54 7cbd 3146 903d 35c8 e23d fd19 c7bd
000001b0: 6142 033e 9022 a8bc c5b9 e03d 9701 483e
000001c0: b870 043e 3466 b1be 2f75 8bbe 7791 583e
000001d0: c75c 4f3c b5a8 ab3c a70e 8cbe c8bc 193e
000001e0: 56a4 54bd d9bd cc3e 297e 9d3e 81d0 823e
000001f0: 7d71 d53d 8166 07be 17dc 12be 1726 f2be
00000200: e339 debe 8eda 033c 2c7e fdbd d670 babe
00000210: ec0e dfbd e268 5dbe f90c 463d 677e cabb
00000220: d446 31be 3d72 04be c116 20be 3362 8e3e
00000230: 6d69 a3be 9dab 7bbd 5f0c 923d 71c8 75bd
00000240: 3fc8 6cbe 4143 423d 17bf ca3d b30a 673e
00000250: 5339 a9bd 60ee 6ebc d7ce 813e d911 ba3d
00000260: 1387 5b3e 7f41 2abe 4e3a dd3e 0366 a83e
00000270: a069 8ebe f9fc 1c3e 5812 90be 8467 d03e
00000280: af59 23be 6cc8 fd3d 96bd 5c3c 7828 b4bd
00000290: 07af e03e 4796 b1be 7969 ae3d eb9b 463e
000002a0: 44ae 5d3d fa34 15be 27e9 f1bd 7d4d f33d
000002b0: 3968 863f c634 6c3e e3b4 dfbd b670 a8bb
000002c0: e215 1a3e 6082 66bd 7721 373d 39b7 6cbb
000002d0: ac72 a13d d5b6 d03c 8b6e afbe 26a3 883d
000002e0: 142d 5ebe fb49 b03c d4dc 8b3e 5271 60bd
000002f0: 4586 033e 5daa 9d3e 9559 81be 8b70 39bd
00000300: 8a7b 923e 8cd6 813e af18 54be 8453 9abe
00000310: 1463 4cbb 0401 43be a181 5e3e 9f23 8ebd
00000320: 3caf 803e e097 bbb8 c5f3 183e d384 a7be
00000330: e078 9b3e d209 ad3e 6304 19be ae5f 2f3d
00000340: ac49 b7be 65b4 a6bd ee07 6fbe 7454 c7bc
00000350: 0978 c73d d674 45be 4897 b63e 3f93 b8be
00000360: f161 743d 6206 123e f16e 0bbe 7397 0d3d
00000370: a7cc 023f 8b0f 52be 3d99 1e3e 2432 a93e
00000380: a070 133e 6810 73be e217 62be ed63 7bbe
00000390: bd65 673e 2d30 f03d 86bd 6dbe 0f9d a33e
000003a0: 681b fdbd c6e4 973d 81c0 d63e 2035 95be
000003b0: 7b27 f73c 76ba 153e 6f87 403e 8b8e 76bd
000003c0: d5cb ae3e 47df 903e 7bfd c93d d50b ba3e
000003d0: 0670 f8bd 388b 9fbe 84ed 53bd a9dd f73d
000003e0: 0dd4 c03d 59fa 37be 7e0d 33be a5b8 323e
000003f0: 3a79 02bf fcfe 38be 2d2d b13e 5174 13be
-0.16031282 -0.07441029 0.052588426 -0.11172498 0.23068447 -0.17599867 -0.3203037 -0.14280829
0.07213782 0.31190154 -0.28460264 0.12115099 0.14140324 0.28727424 -0.12373763 -0.35154688
-0.06317142 -0.31458834 -0.31006336 -0.3471541 0.30834898 0.092070885 0.17364131 0.33042625
0.33431873 -0.39878306 0.26133054 0.038347077 0.29407424 0.058752738 -0.22636224 -0.03929053
0.23982227 -0.11950995 0.3966692 0.24788123 0.095891446 0.022078007 -0.010495432 -0.024387639
0.23567343 -0.23738809 0.17553246 0.23414992 -0.23267338 -0.012462936 0.051629663 -0.52515656
0.10237357 0.0971317 -0.14021772 0.0047339518 -0.43325585 -0.21750833 -0.12680124 -0.4458111
0.05013096 -0.026523741 0.33377942 -0.17043638 0.31217596 -0.44365934 -0.037205838 -0.22494489
0.16598232 -0.11254141 0.11674052 0.055044737 -0.17304865 0.0542414 0.03534639 0.21269977
-0.1034365 -0.1697493 0.4676858 0.099996485 -0.30942777 -0.22917858 -0.3309326 -0.35860312
0.118940696 0.07944935 -0.3641623 -0.27907643 0.34921646 -0.0012306579 0.13360935 -0.06798014
-0.06672897 0.13112704 -0.39986786 -0.3198526 -0.13383508 0.061954197 -0.029899998 -0.2592891
0.4191966 -0.18886949 0.1962564 -0.22514741 0.17969356 -0.107852206 -0.21540843 0.31105357
-0.061603893 0.07044638 0.11073343 -0.09721754 0.1281829 -0.020524293 0.10972933 0.19531856
0.12933624 -0.34648287 -0.2723784 0.2114924 0.012656397 0.02095447 -0.2735493 0.1501342
-0.051914535 0.39988592 0.30760315 0.255497 0.10422037 -0.13222696 -0.1434177 -0.47294685
-0.4340354 0.008047713 -0.12377581 -0.36414212 -0.10891518 -0.21622041 0.048352215 -0.006179619
-0.17312175 -0.12934203 -0.1563368 0.27809295 -0.3191637 -0.06144296 0.07131266 -0.06000561
-0.23123263 0.04742742 0.09899729 0.22562675 -0.08262887 -0.0145832 0.2535312 0.090854354
0.21438245 -0.16626547 0.43208545 0.3289033 -0.2781496 0.15330876 -0.28138995 0.40703976
-0.1595218 0.12391743 0.013472935 -0.08796781 0.43883535 -0.34684965 0.08516211 0.19395415
0.05412127 -0.1457099 -0.118120484 0.11880014 1.0500556 0.23067006 -0.10923173 -0.0051403893
0.1504741 -0.05627668 0.04470965 -0.0036119951 0.078832 0.025477806 -0.34264025 0.06671743
-0.21696883 0.021519652 0.27316916 -0.05479557 0.12844189 0.3079404 -0.25263658 -0.045273345
0.28609878 0.25359 -0.20712541 -0.30141842 -0.0031186985 -0.19043356 0.21729137 -0.06940388
0.25133693 -8.945144e-05 0.1493674 -0.32718524 0.30365658 0.33796555 -0.1494308 0.042815857
-0.35798395 -0.08139876 -0.23342869 -0.024332263 0.09739692 -0.1928285 0.35662293 -0.3604984
0.059663717 0.14260247 -0.1361654 0.03456826 0.51093525 -0.20513742 0.15488143 0.33046067
0.14398432 -0.23736727 -0.22079423 -0.24549837 0.22597404 0.11727939 -0.23216829 0.31955764
-0.12358743 0.07416682 0.41943744 -0.29142094 0.030170193 0.1462191 0.18801664 -0.060194533
0.34139886 0.28295347 0.09862801 0.36337152 -0.12130742 -0.31160903 -0.051740184 0.12102825
0.094154455 -0.17966594 -0.17485616 0.17453249 -0.5096623 -0.18066019 0.3460478 -0.1439984

bias f4 [64]
00000000: 4666 373e c850 7c3d 2b38 66bd 9987 683e
00000010: 5573 cdbe d879 76be 63fd 8fbc 3acd 753e
00000020: 324e ab3e 2641 2b3e a6d8 153e be8b 44be
00000030: 0432 9d3e 8705 553e a8ba 663e 36d0 6b3c
00000040: c699 623e cd4b c6be 3f15 df3d ed68 54bf
00000050: a15d 71bd 3ed5 833d 865f 783e 283a 983e
00000060: 85e0 943e c6e1 b2be 23d0 0a3d fb13 653e
00000070: b8cb 0bbe ceb1 103e 4aaf 513e bf08 afbd
00000080: 2376 abbe 5fe4 d3bd 99ba 90bc f3e2 c03d
00000090: 1b9e 3fbd 65fe a2bc 6968 693e a210 053e
000000a0: 099d af3e 8ef7 31be 2977 90be 382e cf3d
000000b0: 9494 d3be 810d 95bd be82 f1bd 6a7e 42be
000000c0: 1a45 aabc f2b6 9abe d784 1d3e ed3f 2a3f
000000d0: 9e33 973e 9530 9c3e b761 5cbe 8054 cfbd
000000e0: a4e2 183e 61dc 18be 2c38 aa3c 7e64 71be
000000f0: 3d66 9ebe 00f6 1e3e 8686 6ebe 8b6b 363e
0.17910108 0.061600477 -0.05620591 0.22707976 -0.40127054 -0.24069917 -0.017576879 0.24004069
0.33458096 0.16724071 0.14633426 -0.19193932 0.3070222 0.2080289 0.22532141 0.014392903
0.22128972 -0.38729706 0.10892724 -0.82972604 -0.058927182 0.06437157 0.2425519 0.2973187
0.29077545 -0.34937876 0.0338899 0.22370903 -0.13651931 0.14130327 0.20477024 -0.0854659
-0.3348857 -0.10346293 -0.017667102 0.09418287 -0.04678164 -0.019896695 0.22793736 0.12994626
0.34299496 -0.17379591 -0.28215912 0.101162374 -0.41324294 -0.07277966 -0.11792515 -0.18993536
-0.020784903 -0.302177 0.15382706 0.66503793 0.29531568 0.30505815 -0.2152165 -0.10123539
0.14930207 -0.14927818 0.020778738 -0.23573491 -0.30937377 0.15523529 -0.23293504 0.17814462

weight f4 [64, 64]
00000000: 9e41 c13c ad4c f73d 0516 c33e baff 27bb
00000010: 9a62 c8bd de23 263d ba81 ad3e 0fab c4bd
00000020: 3eb8 6cbe 24d8 ddbd b365 bbbd 505d e53c
00000030: bca9 ba3d 6e8d 12be bc82 27bb 35fb fdbd
00000040: 7553 eebc ddb6 f23c d3e0 22be 818b b23e
00000050: d132 a4bd 5e9d 18bd b84d 52be 6e91 96bd
00000060: 9d34 49bc c58a 91bd b75c 99be 1a24 bc3d
00000070: cdf7 893d bfad 8fbd 69b5 663d a48d 663e
00000080: 35be 8b3d 4c72 a3be 3158 d93d eb11 903e
00000090: afad babe d873 f4bc f3d2 d93d eb5e 44be
000000a0: e0d1 863c 53ad ec3b f813 14be 4149 b33e
000000b0: 6b99 ab3d 513b 8bbd 9c85 563e bdd1 1b3e
000000c0: 94e7 a63c 9146 983b 2edd 9dbd 5b44 e83d
000000d0: b83c 83be ec44 9f3d f486 363c 9750 7dbe
000000e0: 3db1 0abe 879d ff3d beb5 3a3e 9d05 1ebd
000000f0: 54a1 34bc ff02 c93c 4acd d13d a9ff c53d
00000100: efc6 91bd 97ed d73d 5d7a 833d 5b0c b9bd
00000110: 623f afbd e8ab a33d 72d1 d23d dc49 ca3c
00000120: 58ee b0bd 1f76 4bbd 25e6 2cbd ceed 8d3d
00000130: 33dc ab3d 3443 04bd 923c c3bd 45f7 84bd
00000140: f093 b63c 2fa4 fbbd 6aa9 37bd c223 c73d
00000150: 3f22 29bd fff5 f3bc dea3 95bd d10f 81bd
00000160: d89c e43d 82e9 aa3d ff02 cabc abff 6c3c
00000170: 5ab1 343d 9780 e63d 42c3 56bd 9f59 cf3d
00000180: 33f1 0abd 48ba 4b3d ccf0 8d3d 0b1d e83c
00000190: 7e93 33bd 4720 babd e4ba c3bd 95da 0dbd
000001a0: e5cd d43d f1d4 0f3d 01c5 f4bd 297a e1bd
000001b0: c1a7 33bd 2d19 b13d eb9d 1c3c 5e9a c1bd
000001c0: 4110 25bc 7e30 fabd 8993 cc3c e8ac 8dbd
000001d0: 9533 1dbd 8118 5ebd 9942 6f3b 6a5b c53d
000001e0: 81be 6d3d 68e8 c43d bce1 dabd 2c8d 953d
000001f0: 200b a43d eeb7 033d 7f94 0cbd d243 253c
00000200: 80a7 61bd a046 6c3d 9359 1bbc f6b5 243d
00000210: a960 63bd 6164 b3bd d4cd 0b3c 5536 cbbd
00000220: 3610 c63d f618 08bd ccb9 9e3c b646 473d
00000230: 21d8 c73d 1f2a 353d 7be3 6a3d 4fd0 55bd
00000240: e6d9 c93d 9329 02be 5d57 ffbd da21 333d
00000250: 0441 ea3c 0f3a 99bb 4b16 933d e9b0 af3c
00000260: 803b a4bd cb6a 823c 5780 7b3d a71e ff3d
00000270: 4660 eb3d 692b 05be 91fc d6bc 9275 b13a
00000280: 836c ab3d 8a5f d43c 9ac9 0dbe f57e e5bd
00000290: 2d72 ed3b a266 9b3d d123 0bbd b2f5 043d
000002a0: 8543 7b3d c8dc d6bd ca86 85bd 643c dbbd
000002b0: 2269 d73c 0b09 d43b 1153 f4bc 6b90 a83d
000002c0: 2231 91bd 60e4 0abe d6d0 ab3b ee9d 063e
000002d0: 9369 3d3d ff8e 84bd 4d26 f93d 55e1 ad3d
000002e0: 4175 eabd ea8f c63d f519 8abd 79aa aa3c
000002f0: bd5d 993d 05df 02bd 0e85 ad3d 3657 8dbc
00000300: aef0 b4bd d2f6 803d 50d4 69bd e01a 7cbc
00000310: accd 603d 10a8 55bd 9e42 d5bd e508 b1bd
00000320: c526 b3bd 820b a6bd 18fd 18bd c01a f0bb
00000330: 6045 2fbc 807c 0e3d 0d97 663d a45d 03bd
00000340: f238 e3bd 3598 8c3d 6c3a bf3d 6e0b eebd
00000350: 4516 b2bb 1067 2ebc 728f 55bc aac4 993d
00000360: ca01 8ebd 8b37 d6bd 4467 f5bd 90bf babd
00000370: 86a5 cbbd 70ec 1bbd b811 a3bc 9a59 f93c
00000380: 7529 6f3c 2c5c 8bbd 8267 a7bc 5bc5 ea3d
00000390: 8430 ac3d 4e0a a5bd f781 cd3c 01c8 253d
000003a0: b813 1b3d 4642 fdbd c07e 673c 7b1a a03c
000003b0: aea6 b93d 1ee7 3d3d d806 d8bd c7c6 f43d
000003c0: 949e a13d 9e56 ed3c 486e dc3d d86c 96bd
000003d0: 42eb 88bd 031a 99bd 001b 64bd ed9a a73d
000003e0: 7a0f d0bd 1f90 9e3c 17d1 c9bd 8dc8 88bd
000003f0: cac7 893d 50bf 713d b520 10bd 6bfc 68bc
0.023590859 0.120751716 0.38102737 -0.0025634603 -0.09784432 0.04056155 0.33888036 -0.09602939
-0.23117158 -0.10832241 -0.09150257 0.027998596 0.091144055 -0.14311764 -0.0025560101 -0.124014296
-0.02909253 0.029628212 -0.15906076 0.34872058 -0.08017505 -0.037259452 -0.2053746 -0.07351957
-0.01228061 -0.07106546 -0.29953548 0.09186573 0.067367174 -0.07015561 0.05632535 0.22514969
0.068233885 -0.3192314 0.10612524 0.2813867 -0.36460635 -0.029840395 0.106359385 -0.19176833
0.016457498 0.0072228103 -0.14460742 0.35016826 0.083788715 -0.06798423 0.20949405 0.15216728
0.020374097 0.004647084 -0.07708202 0.11341163 -0.25632262 0.07776818 0.011140574 -0.24737774
-0.13544174 0.12481218 0.18233392 -0.038579572 -0.011024792 0.024537561 0.10244234 0.09667904
-0.07118022 0.105433635 0.06419823 -0.0903556 -0.08557011 0.07991773 0.10293855 0.024693422
-0.086392105 -0.049673196 -0.04221167 0.06930123 0.08391609 -0.032290652 -0.09533037 -0.064924754
0.022287339 -0.12287175 -0.0448393 0.09723617 -0.041292425 -0.029780386 -0.07306646 -0.06301845
0.11162728 0.08345319 -0.024659632 0.014465253 0.044114448 0.11254995 -0.052432306 0.10124516
-0.03392143 0.0497382 0.06930694 0.028334161 -0.04384183 -0.09088188 -0.09557131 -0.034632284
0.10390834 0.035115186 -0.11951638 -0.11009628 -0.043861154 0.0864738 0.009559135 -0.09453271
-0.010074676 -0.122162804 0.024972694 -0.06917745 -0.03837927 -0.054222587 0.00365082 0.096365765
0.058043007 0.096146405 -0.10687587 0.07302317 0.080099344 0.03215783 -0.034321304 0.01008697
-0.05509138 0.05768454 -0.009481805 0.040212594 -0.055512104 -0.0875938 0.00853296 -0.099224724
0.09671061 -0.03322693 0.019375704 0.04865142 0.0975802 0.044229623 0.05734585 -0.05220061
0.09856014 -0.12711172 -0.12467835 0.043733455 0.028595455 -0.0046761106 0.071819864 0.021446662
-0.08019161 0.015920063 0.06140169 0.12457018 0.11492972 -0.13004841 -0.02624348 0.0013539067
0.08370306 0.025924463 -0.13846436 -0.11205856 0.007246277 0.07587935 -0.033969704 0.032460876
0.06134369 -0.104913294 -0.065198496 -0.10704878 0.026295248 0.0064708046 -0.029824765 0.082306705
-0.070894495 -0.1356368 0.005243401 0.13146183 0.04624326 -0.06472587 0.121655084 0.08490244
-0.11448146 0.09695418 -0.06743232 0.02083324 0.07488582 -0.03195097 0.08472644 -0.0172535
-0.088349685 0.06297077 -0.057087243 -0.015387267 0.054883644 -0.05216223 -0.10413097 -0.086442746
-0.08747629 -0.08107664 -0.037350744 -0.0073274076 -0.010697693 0.0347867 0.056296397 -0.032071725
-0.11094846 0.06864969 0.09337315 -0.11623274 -0.0054347836 -0.010644689 -0.013034688 0.07508214
-0.06933935 -0.10459813 -0.11982587 -0.09118569 -0.099436805 -0.03806728 -0.01990591 0.030438233
0.0145972865 -0.0680469 -0.020435099 0.11463424 0.08407691 -0.08058606 0.025086386 0.04047394
0.037860602 -0.12366156 0.014129341 0.019543877 0.09064995 0.04636299 -0.1054818 0.11951976
0.078915745 0.028971966 0.10763222 -0.07344979 -0.06685497 -0.074756645 -0.05568981 0.081838466
-0.10159202 0.019355832 -0.09854334 -0.06678877 0.0672756 0.05902034 -0.03518744 -0.014220337

bias f4 [64]
00000000: 05d8 2ebd 1ab9 bebd d0e3 6ebd b3a0 c7bd
00000010: ae83 013e 8a0a 74bd 609b 2ebe d8b1 4ebd
00000020: 773e 8d3d 4687 e6bd 2048 3fbd f416 6ebc
00000030: 84af 9bbb f05f 74bd f074 443b 36ec b93d
00000040: cdaf 00be aadb a83b 978c 1bbd ef49 68bd
00000050: cf30 b03d 66dc 25be a74a b33d 73ac daba
00000060: 242e 3cbc b697 d6bd d676 3abe 2ac5 e33d
00000070: 7948 173d dfdf d13d 1034 983e 0c5c f03d
00000080: c0fe b0bd 52ca 273e 0ff9 9f3d 5d15 bfbc
00000090: 50d8 77bd 914d 3e3d a3e6 9fbd f8a6 0a3e
000000a0: bc00 b0bd caf5 283e 3760 053e f995 27be
000000b0: f23e 65be 77df d63d dfe9 f93d 5097 96bd
000000c0: 8370 5bbd b419 083d 189a d93d b813 56bc
000000d0: eba9 95bc f3bd 76bb 73e0 1cbe 0800 d0bd
000000e0: f47d d7bd fc04 5b3b e8ac d73c 2c67 023e
000000f0: 1f84 06be b270 ee3c d8da 143d 9573 483c
-0.04268648 -0.09312649 -0.058322728 -0.09747448 0.12647888 -0.059580363 -0.17051458 -0.050462574
0.0689668 -0.1125627 -0.046699643 -0.01453184 -0.0047511477 -0.059661806 0.0029976927 0.09078257
-0.12567063 0.005153139 -0.037975874 -0.056711134 0.086030595 -0.16197357 0.08754473 -0.0016683474
-0.01148561 -0.10478155 -0.18209395 0.111215904 0.03693435 0.10247778 0.2972722 0.117363065
-0.0864234 0.16385773 0.07811176 -0.023325616 -0.060509026 0.04646069 -0.07807662 0.13540256
-0.0859389 0.16500011 0.13024984 -0.16365804 -0.22387293 0.10491841 0.122028105 -0.07353079
-0.053574096 0.033227637 0.10625094 -0.013066225 -0.0182695 -0.003764984 -0.15319996 -0.10156256
-0.105220705 0.003341972 0.026327565 0.1273467 -0.13136338 0.029106472 0.03634152 0.012234588

weight f4 [32, 64]
00000000: c1dc 10be af25 59bb bc69 b6bd cc55 b8bc
00000010: 0954 833d 550d ddbd dbba 8ebd 86d2 013e
00000020: 5c87 d5bd 7fb2 883d aed5 d1bd 4640 e4bd
00000030: 03c8 a03d 89f2 a1bd bdd3 f3bd de4d 37bd
00000040: ac40 773d 3724 afbd 7bfd 94bd 7a74 9d3d
00000050: 0a65 173e c235 223c 58b1 eebd 23ee 723d
00000060: 8371 d9bc 4788 d6bd 19d0 e1bd 4e93 c2bd
00000070: 56e7 213d 5365 0e3d bca0 a5bd a420 b03c
00000080: 4956 0d3e 84ad f5bc 3bd2 90bc 3209 27bd
00000090: 3272 1abe 238e afbb 5605 a13d 020a 16bd
000000a0: 223d 82bd 7a9f 0fbd d416 043e ccac 10bc
000000b0: e1cf bebc 6cbc 183e 92eb abbc d757 3c3d
000000c0: b3f0 acbd 087b f83c 2944 193e 0dd0 153e
000000d0: d68c 963d a3b3 973d 5cf4 103e 32ca c3bc
000000e0: eebb 92bc e4d6 aa3d 2f25 1f3d fc27 f43d
000000f0: e83e 90bd 1fd4 e53a ad25 83bd ef44 eebd
00000100: 980f 00be 4aa9 d83a 8c0b 223d b5ed 853d
00000110: 8906 bf3d f1ec 9d3d 7eea bcbd be52 b0bd
00000120: ea43 29be 9e8a 57b9 7230 e3ba 035d ea3c
00000130: 1f55 973d 6fef 01be a3c7 7e3d 2978 0bbc
00000140: 6557 143d 38e9 e43c aa92 e53b 5ae0 293e
00000150: ef3d 183e db5b 98bb 8fc8 3dbe add9 d53d
00000160: 6b9e c63d 66a2 1abc 1e5b 98be 53cd 25be
00000170: 96eb 0bbe 82c5 ff3d ccb2 e9bd 0ca8 f63c
00000180: a4f0 053e 5908 1d3e 627a ddbd cf32 8d3d
00000190: 7753 e9bd f4e7 08be e2f0 053d ae8b 9cbd
000001a0: 346d c03d be1f 06be 9855 153d a3ee 2d3e
000001b0: a487 bd3d 4497 163e 185e ecbd 1402 cd3d
000001c0: 2cb2 103e 0af5 12be 471c 363e 1db3 f53d
000001d0: 2aef 593e 5f15 c63d 5707 d73d ac71 2bbd
000001e0: c037 093d 05c1 5d3d 8705 23bc b9fe 62bd
000001f0: 8563 0e3e 6c1a 983d b3ab e6bd f46f b23d
00000200: f2b2 59be 9c7c ba3d 0fac b73c 61ad 92bd
00000210: 4016 d93d 56c6 003e 543a a9bd df75 463d
00000220: fc72 23be d65e e83d 916a 14bd 93e2 003e
00000230: e14f 903d 8372 03bc 254b f3bd a5cc 1f3d
00000240: 2113 85bd 70e3 073e 8441 d0bc 940a 4fbd
00000250: 2fe3 2e3e 40e5 d33d 2b55 f2bc fb13 0d3e
00000260: 8d40 d23c 1376 56bd 343d c8bd b9f6 79bc
00000270: 4143 453b d7e3 f43d 750a d8bd 17c7 6fbc
00000280: d6e7 d03c eb9b f93d b9c4 013e 9584 edbc
00000290: 508e 25bd ea36 b93d 5a38 98bd b49b dabd
000002a0: c6ee 363d be4a 92bd dc0b 4c3d 0164 233d
000002b0: 341f 103e 2574 b43d dc0c 05be f076 063e
000002c0: 700d c73c 6229 81bd 6c15 5d3d b7b2 f6bc
000002d0: c53b aa3d ace8 163e 3eae 303e fb15 0bbd
000002e0: 97ca de3c 62b9 223e 7f7c d53d 66c1 9dbd
000002f0: be08 81bd 042d 233d f89c 2fbe 1a7d 873d
00000300: 9215 223e 12c9 a73d ef2c f13c 9f5a cdbd
00000310: ea2c e2bd 9806 d6bc 2f5a 70bd 1827 e0bd
00000320: ef0b 563d 1898 b63d 4341 2e3b 25e2 febd
00000330: 9224 813d 94bf e4bd fb72 73bd 39f3 003e
00000340: 2b0b e53d 769d 2e3c c47e babc 7c6c b2bc
00000350: 40b0 de3d b4e7 80bd c5a2 213b 4549 833d
00000360: d95e e53c 5c91 153e 7934 083e d8fd 57bd
00000370: 76bc c83d 2189 7d3d 0ecc 36bc 46bd bdbc
00000380: ef1e d2bd 14e3 2abc 4432 c43d 50f7 09bd
00000390: a260 6e3d 9104 1e3d f21f 3e3c c568 023e
000003a0: aa29 bfbd 020f b73d 5746 2dbd 8474 07be
000003b0: 2921 16bd da6c d5bd f5df 0b3d 4cd4 afbc
000003c0: 0417 9ebd f338 173e dd23 7d3d 926c 1bbe
000003d0: 094d 7a3d aa38 3cbd c8b3 d93d 2123 dc3d
000003e0: 7985 e4bd 83dd 7fbd 4244 913d 978b 163c
000003f0: 1625 87bc ef34 a5bd 25fa c4bd a293 e23d
-0.14146711 -0.0033134033 -0.08906886 -0.022501849 0.06412513 -0.107935585 -0.069692336 0.12677965
-0.104262084 0.066746704 -0.10245834 -0.11145072 0.07850649 -0.07907588 -0.1190562 -0.044751994
0.06036441 -0.08551829 -0.0727491 0.07688232 0.14784637 0.009900512 -0.116549194 0.059309136
-0.026543384 -0.104752116 -0.110260196 -0.095007524 0.03952726 0.0347646 -0.08087298 0.02149994
0.13802446 -0.029989965 -0.01767837 -0.040780254 -0.15082625 -0.00535752 0.07862346 -0.036630638
-0.063593164 -0.035064198 0.12899333 -0.0088302605 -0.023292484 0.14915627 -0.020986352 0.045982208
-0.08444347 0.030332103 0.14967407 0.14630146 0.07351081 0.0740731 0.14155716 -0.023900125
-0.017911877 0.083417684 0.03885382 0.11921689 -0.070432484 0.001753453 -0.064036705 -0.11634242
-0.12505949 0.0016529944 0.039561793 0.0653948 0.09327418 0.077112086 -0.09224413 -0.08609532
-0.16529813 -0.00020555637 -0.0017333163 0.028608805 0.073892824 -0.12688993 0.062202107 -0.008512535
0.03621616 0.027943239 0.007006009 0.1658949 0.14867376 -0.004649622 -0.18533538 0.10441909
0.096981846 -0.009438133 -0.29757017 -0.16191606 -0.13664088 0.124888435 -0.11411056 0.030109428
0.13080078 0.15335216 -0.10814358 0.068944566 -0.11392873 -0.13369733 0.032700427 -0.07643829
0.09395829 -0.13098046 0.03645858 0.16985564 0.09254387 0.14706141 -0.115413845 0.10010162
0.14130467 -0.14351287 0.17784224 0.11997054 0.2128264 0.09672045 0.10499447 -0.041856453
0.033500433 0.054139156 -0.009950048 -0.055418704 0.13905151 0.074269146 -0.11263218 0.087127596
-0.21259668 0.091057986 0.022420911 -0.07161976 0.10599947 0.12575659 -0.08263078 0.048452254
-0.15961832 0.113462135 -0.036234442 0.12586431 0.07046486 -0.008022907 -0.11879567 0.039013524
-0.06497789 0.13270354 -0.025421865 -0.050547197 0.17078851 0.1034646 -0.029581627 0.13777153
0.025665546 -0.052358698 -0.097772986 -0.015256577 0.00300999 0.119575195 -0.105488695 -0.014634869
0.025501173 0.12187942 0.126727 -0.028993884 -0.040418923 0.09043677 -0.07432623 -0.10674229
0.044661306 -0.07143162 0.049815997 0.039890293 0.14074403 0.08811215 -0.12993187 0.13131309
0.0242984 -0.06306721 0.053975508 -0.030114515 0.083121814 0.14737195 0.17253968 -0.03395651
0.027196212 0.1589103 0.10424136 -0.077029034 -0.063004956 0.039837852 -0.17149723 0.06615658
0.15828541 0.08192648 0.029440371 -0.1002705 -0.11043723 -0.026126191 -0.058679756 -0.109449565
0.052257475 0.08915728 0.0026589192 -0.124454774 0.06305803 -0.11169353 -0.059435826 0.12592782
0.11183771 0.010657659 -0.022765525 -0.021780245 0.10873461 -0.06294194 0.0024663669 0.064104594
0.027999328 0.14606231 0.13301267 -0.05273232 0.09801571 0.061898354 -0.011157049 -0.023161542
-0.10259806 -0.010430116 0.095799 -0.03368312 0.058197625 0.038578574 0.011604296 0.12735279
-0.09334119 0.089384094 -0.04230341 -0.13228041 -0.036652718 -0.104211524 0.03414913 -0.021463536
-0.07719234 0.14767818 0.06180178 -0.15178135 0.061108623 -0.045952477 0.10629994 0.10748888
-0.111582704 -0.06246711 0.07093097 0.009188554 -0.016497176 -0.08066737 -0.09618024 0.11063315

bias f4 [32]
00000000: f80b 993d 4c8e ab3c 6043 10bd 80ad 6cbd
00000010: 9e45 32bc 0a6b ccbd e9ac 9f3d d8fd f93d
00000020: 4311 05be a74e 74ba a0c8 093e 6aa1 1d3d
00000030: 3e09 15bd a5a9 873d 9616 eabc ceeb 113e
00000040: 2e41 8b3d 854a 653d 43a1 bcbd eed9 153e
00000050: 512d 33bc 2f88 aabd 32a9 b13d d083 ef3b
00000060: 7f0e 8c3d b9ca e03d 8970 093e b8b2 e33d
00000070: 9a6b 0f3d 63e6 0e3d 3a1d ae3d c657 b8bd
0.07472986 0.020941876 -0.035220504 -0.05778265 -0.010880856 -0.099813536 0.07796652 0.1220662
-0.12994866 -0.00093195814 0.13455439 0.038484015 -0.036385767 0.06624154 -0.028575223 0.14250109
0.067995414 0.05597927 -0.09210446 0.14633915 -0.010936097 -0.08326756 0.086748496 0.0073094144
0.068387024 0.10976166 0.13421835 0.11118072 0.035014726 0.034887683 0.08501668 -0.090011165

weight f4 [1, 32]
00000000: a59c cbbe db3d 1ebf 87b1 f6be 23f4 923e
00000010: 3f11 96be 61d3 353e 3b24 753f 10f8 b33c
00000020: 51b2 36be 87f5 f2bd 1cde 28bf 9169 4b3f
00000030: b46f e53e 9310 c1be 4a4b 743f bbf2 6bbf
00000040: a770 2e3f 0c70 d9bd b5bf 823d 439b 7b3f
00000050: 4537 66bb 2e8c 74bd e706 0cbf 45ec eebc
00000060: 09e3 3d3f 4ffa c43e ee53 db3e dd8c 843f
00000070: 9b59 94be 8e0f 64bf ad52 14bf 14bb 9b3e
-0.39767948 -0.61813134 -0.48182318 0.28701887 -0.29310033 0.17756416 0.9575841 0.021968871
-0.1784146 -0.11863237 -0.6596391 0.79457957 0.44811785 -0.37707958 0.9542738 -0.9216725
0.68140644 -0.10617074 0.063842215 0.98283786 -0.0035128158 -0.059704 -0.5469803 -0.029165396
0.74174553 0.3847222 0.4283747 1.0355488 -0.28974614 -0.89086235 -0.57938653 0.30416167
